best_model.pth (torch, 517960 bytes, 120 tensors)

NAM_features.bias f4 [4]
-0.034803193 0.042996746 -0.04778258 -0.0808279
00000000: cb8d 0ebd 5b1d 303d abb7 43bd 1989 a5bd

NAM_features.feature_nns.0.feature_nns.hidden_layers.0.weight f4 [1, 64]
-0.08639962 -0.33116388 -0.058912005 0.2721555 -0.16080637 -0.17235723 -0.087875746 0.3049705
0.040488712 0.08218222 -0.105481744 0.27201617 -0.1517482 0.17541903 -0.025422378 -0.35953727
0.122218624 -0.110814825 0.25144184 -0.092119165 -0.2551983 0.10605746 -0.15524618 0.10069316
0.10694187 0.07667216 -0.20434341 -0.08680195 0.030641008 -0.08664424 0.2538209 0.1948887
0.20583947 0.26312566 0.18674271 -0.09828827 0.114636496 -0.13789012 -0.01679448 -0.020216422
-0.0703791 -0.10536409 0.27078232 0.15498987 0.20631848 0.25761652 -0.21793416 -0.2010238
0.107334025 -0.34554225 -0.009842177 -0.25103316 0.2280393 0.27621773 -0.19176495 0.20463632
-0.07914387 -0.23204656 0.086660124 0.24741751 -0.24428688 -0.041306023 -0.049122933 -0.018480932
00000000: 49f2 b0bd 508e a9be b74d 71bd f757 8b3e
00000010: 6daa 24be 6a7e 30be 33f8 b3bd 1825 9c3e
00000020: 7ed7 253d 274f a83d d006 d8bd b445 8b3e
00000030: e163 1bbe 0ca1 333e 9742 d0bc 4515 b8be
00000040: c24d fa3d e2f2 e2bd fcbc 803e f9a8 bcbd
00000050: 5aa9 82be a734 d93d dbf8 1ebe 3738 ce3d
00000060: 5704 db3d 4b06 9d3d 663f 51be 39c5 b1bd
00000070: da02 fb3c 8972 b1bd d0f4 813e e790 473e
00000080: 95c7 523e 68b8 863e 7b39 3f3e 5c4b c9bd
00000090: 8ac6 ea3d 1133 0dbe 9494 89bc e99c a5bc
000000a0: eb22 90bd 21c9 d7bd fba3 8a3e aab5 1e3e
000000b0: 2745 533e 50e6 833e 222a 5fbe 2fd9 4dbe
000000c0: f1d1 db3d eaea b0be 1541 21bc 6b87 80be
000000d0: 2283 693e 696c 8d3e 085e 44be 2f8c 513e
000000e0: 2e16 a2bd 9d9d 6dbe dd7a b13d 045b 7d3e
000000f0: 5726 7abe 8130 29bd 2135 49bd 5365 97bc

NAM_features.feature_nns.0.feature_nns.hidden_layers.1.weight f4 [64, 64]
-0.088203035 0.21091516 -0.0850789 -0.06434686 -0.12831718 -0.012612849 0.18443137 -0.030115237
-0.1772581 -0.124003 0.04462952 -0.0032277186 -0.2024868 -0.04153884 -0.18813992 0.015671726
-0.04128192 -0.010039195 -0.123904206 0.07378461 0.032496877 0.052929074 -0.09012623 -0.0013714208
0.02310845 -0.049160894 0.038644314 -0.09697796 -0.10355641 0.040231865 0.06229836 -0.01632787
-0.0016320033 -0.20860069 -0.10658162 0.021503836 -0.1249868 0.018246623 -0.05984825 0.038030673
-0.08339264 -0.085104 -0.026378412 -6.3034364e-05 0.036024522 -0.00030611968 0.20181489 -4.9527e-41
-0.012075319 -0.10557372 0.17339677 0.12803216 0.0011573636 0.10679321 -0.0068635936 -0.0011498384
-0.045348603 -0.0038746118 -0.008842992 -0.19534619 -0.0058953175 0.20961909 -0.087924436 -0.1276581
-0.020110354 -0.13271794 0.15872632 -0.06884107 -0.19781394 0.12411252 0.07388872 0.089096956
-0.15926003 0.014003107 0.10633254 -1.9949666e-05 0.11121274 0.19688842 -0.03955351 -0.032487612
-0.13084842 0.065154426 -0.1543983 -0.026520174 0.15978663 0.15584284 0.022323906 -0.0007304974
-0.000780128 -0.05143773 0.024733944 -0.023780368 0.21743558 0.116320886 0.0016094112 0.07243279
-0.06428431 -0.049083576 -0.17479594 -0.0013454577 -0.20150267 0.11722132 -0.13159746 -0.1459881
0.15117544 -0.021960853 0.15938121 -1.5426219e-06 0.033019453 0.000112818816 0.16471969 4.9309e-41
0.11601215 0.23644017 -0.15176326 -0.14573713 -0.039233524 -0.03674705 -3.598635e-06 -4.8327725e-05
-0.00074460736 -0.0009977351 -0.0009771035 0.043800075 -0.21571252 -0.16810195 0.109692566 -0.1291863
-0.092838064 -0.16994415 0.062342852 -0.07080664 -0.14483738 -0.014421953 -0.13936235 -0.120221145
-0.03806029 0.21373542 -0.09264289 -0.0021261433 -0.113033526 0.045052644 0.17046252 -0.12641504
0.025359636 0.040229708 -0.21246086 -0.12977739 0.16818331 -0.051372565 0.20199426 -0.0012519835
-0.032217227 0.120551564 -0.1398267 -0.055488456 0.17423381 -0.05679387 -0.08711 -0.009848352
-0.048167676 -0.17135568 0.053289846 -0.017388074 0.1354865 -0.096884824 -0.20757648 0.054878168
0.17440526 0.053332686 -0.16102803 -1.763217e-05 0.0050797984 -0.00044151206 -0.1323116 2.321622e-09
0.028334236 -0.15749313 0.12498763 0.022456542 0.1336836 0.18986441 0.003274425 0.0032993846
-0.10755225 -0.0019768986 -0.04402784 -0.12504973 0.14937711 -0.063215464 0.11135676 0.18772365
-0.080460824 -0.23638304 -0.0065516406 -0.187389 -0.060434207 -0.19508663 0.037267867 -0.22943215
0.1395502 0.12431465 0.1555641 0.0059021744 -0.15136328 -0.18331827 -0.0887438 -0.18622048
0.04372934 0.102211565 0.09236829 0.13460343 -0.15976466 -0.1550991 -0.042370968 -7.6600026e-07
0.12797557 0.122673735 -0.032538228 0.0811289 0.12132971 0.19882528 0.14501412 -0.018616745
-0.19559474 0.061933342 -0.030014152 -6.857583e-05 -0.14157853 0.05766587 0.14523478 0.08550579
-0.11440991 -0.10484023 -0.09539858 7.3684724e-14 -0.024915272 -0.0024948756 -0.0010645117 5.576872e-25
0.026825638 0.014953759 -0.17145945 0.0859165 -0.1790274 -0.02361064 -9.4078954e-05 -0.0038481492
0.1528798 0.022981029 -0.035861593 -0.14897472 0.04070861 -0.03608686 0.19237012 0.19154277
00000000: cba3 b4bd 25fa 573e d93d aebd 49c8 83bd
00000010: 9465 03be 1fa6 4ebc 94db 3c3e 3bb4 f6bc
00000020: 2683 35be 49f5 fdbd 72cd 363d 2288 53bb
00000030: b358 4fbe a124 2abd c0a7 40be fe61 803c
00000040: 3b17 29bd 707b 24bc 7dc1 fdbd 631c 973d
00000050: 721b 053d 28cc 583d 1a94 b8bd 3fc1 b3ba
00000060: ef4d bd3c ef5c 49bd 8049 1e3d 619c c6bd
00000070: 6215 d4bd 2bca 243d 912c 7f3d 06c2 85bc
00000080: f2e8 d5ba 6b9b 55be 7747 dabd d028 b03c
00000090: 14f9 ffbd f179 953c 7023 75bd 0dc6 1b3d
000000a0: c3c9 aabd 024b aebd 8a17 d8bc 5131 84b8
000000b0: 738e 133d b07e a0b9 90a8 4e3e 108a 0080
000000c0: 8fd7 45bc 0937 d8bd ec8e 313e dd1a 033e
000000d0: aeb2 973a 66b6 da3d ffe7 e0bb 2db6 96ba
000000e0: 75bf 39bd 33ed 7dbb 32e2 10bc d508 48be
000000f0: 822d c1bb 63a6 563e ba11 b4bd ceb8 02be
00000100: 78be a4bc 36e7 07be 2789 223e 8cfc 8cbd
00000110: bd8f 4abe b42e fe3d f852 973d 7778 b63d
00000120: 1015 23be 4a6d 653c e0c4 d93d 9559 a7b7
00000130: 81c3 e33d 1e9d 493e dc02 22bd bb11 05bd
00000140: 21fd 05be af6f 853d 971a 1ebe d640 d9bc
00000150: 1b9f 233e 4495 1f3e a0e0 b63c da7e 3fba
00000160: 8181 4cba 5fb0 52bd d79e ca3c 0ccf c2bc
00000170: 6fa7 5e3e a539 ee3d e1f2 d23a a557 943d
00000180: 7ea7 83bd dc0b 49bd b5fd 32be 125a b0ba
00000190: b756 4ebe bb11 f03d 7cc1 06be e87d 15be
000001a0: bccd 1a3e 3fe7 b3bc d434 233e 160c cfb5
000001b0: 683f 073d 2499 ec38 47ac 283e 7489 0000
000001c0: c797 ed3d 5f1d 723e d467 1bbe 1d3c 15be
000001d0: 55b3 20bd 1384 16bd 1480 71b6 80b3 4ab8
000001e0: c131 43ba 6fc6 82ba 2712 80ba b567 333d
000001f0: bee3 5cbe eb22 2cbe 7fa6 e03d 6a49 04be
00000200: e221 bebd d705 2ebe 385b 7f3d 1203 91bd
00000210: 4050 14be 0e4a 6cbc 01b5 0ebe 8136 f6bd
00000220: 1be5 1bbd 75dd 5a3e 8ebb bdbd c456 0bbb
00000230: 1f7e e7bd 1f89 383d ba8d 2e3e f272 01be
00000240: 03bf cf3c e8c7 243d 578f 59be 5de4 04be
00000250: 3f38 2c3e 0a6c 52bd 95d7 4e3e 9819 a4ba
00000260: 36f6 03bd bde3 f63d bb2e 0fbe dd47 63bd
00000270: 596a 323e b0a0 68bd ba66 b2bd fb5a 21bc
00000280: 784b 45bd dd77 2fbe 7446 5a3d 6f71 8ebc
00000290: f9bc 0a3e 8d6b c6bd ee8e 54be eec7 603d
000002a0: 4b97 323e 6073 5a3d 88e4 24be cce8 93b7
000002b0: 7074 a63b bf7a e7b9 b17c 07be 688a 1f31
000002c0: 331d e83c e145 21be 84f9 ff3d c8f6 b73c
000002d0: 5be4 083e d16b 423e bc97 563b 7d3a 583b
000002e0: 5b44 dcbd db8e 01bb 8956 34bd 090d 00be
000002f0: 50f6 183e 1c77 81bd 030f e43d a13a 403e
00000300: a5c8 a4bd 650e 72be 25af d6bb e7e2 3fbe
00000310: dc89 77bd cac4 47be 31a6 183d 43f0 6abe
00000320: 3fe6 0e3e ae98 fe3d 324c 1f3e 0767 c13b
00000330: fafe 1abe c9b7 3bbe 4fbf b5bd 95b0 3ebe
00000340: 891d 333d 4c54 d13d 962b bd3d 7bd5 093e
00000350: 5999 23be 4cd2 1ebe 2e8d 2dbd 239f 4db5
00000360: 070c 033e 5e3c fb3d ce46 05bd e926 a63d
00000370: b67b f83d db98 4b3e 957e 143e 2582 98bc
00000380: fd49 48be d1ad 7d3d 3de0 f5bc 5ed0 8fb8
00000390: f6f9 10be 0c33 6c3d 6db8 143e a91d af3d
000003a0: be4f eabd 79b6 d6bd 5560 c3bd 5aec a529
000003b0: 1d1b ccbc 1181 23bb 1687 8bba 8898 2c17
000003c0: 71c1 db3c 9c00 753c 1193 2fbe fdf4 af3d
000003d0: f552 37be 1a6b c1bc 414c c5b8 3b31 7cbb
000003e0: 868c 1c3e b642 bc3c 9be3 12bd d48c 18be
000003f0: 12be 263d d1cf 13bd acfc 443e ca23 443e

NAM_features.feature_nns.0.feature_nns.hidden_layers.1.bias f4 [64]
-0.33856425 -0.031209037 -0.31034735 0.028797908 -0.3322962 0.076990314 0.23320846 0.7725718
0.38966408 -0.14772838 -0.63664436 0.47415045 0.7050129 0.019755725 0.5316998 0.52462554
-0.048583224 -0.16868235 -0.49496567 0.2681237 0.35156557 -0.5388733 -0.16467145 -0.06996152
-0.13339646 -0.42380503 -0.4889272 -0.07564934 -0.37542388 0.42892462 0.2210934 0.32325777
-0.6185512 0.61647344 -0.32994056 -0.09558471 0.76188534 -0.72244376 -0.45407033 0.3099577
-0.54389876 -0.21972154 -0.18194531 -0.0058655427 0.35816646 -0.25361916 0.33494988 0.0050809747
0.7998616 -0.56454194 0.09232133 0.45291093 -0.3700641 -0.21973088 0.8018226 0.0983206
-0.24019179 0.8312103 0.6015588 0.28362215 -0.3844114 0.12554975 0.9451172 -0.13128003
00000000: 4b58 adbe 18aa ffbc d9e5 9ebe 97e9 eb3c
00000010: ba22 aabe 19ad 9d3d 33ce 6e3e 44c7 453f
00000020: 0d82 c73e 1c46 17be 20fb 22bf d9c3 f23e
00000030: ba7b 343f c2d6 a13c 7a1d 083f dc4d 063f
00000040: 34ff 46bd 11bb 2cbe 246c fdbe 8247 893e
00000050: 6700 b43e 9af3 09bf a29f 28be fc47 8fbd
00000060: 1599 08be f9fc d8be aa54 fabe 0bee 9abd
00000070: 8f37 c0be 029c db3e 4f66 623e 0b82 a53e
00000080: 5f59 1ebf 34d1 1d3f f8ed a8be ebc1 c3bd
00000090: eb0a 433f 13f2 38bf e87b e8be c7b2 9e3e
000000a0: f33c 0bbf affe 60be df4f 3abe bd33 c0bb
000000b0: 9861 b73e 5fda 81be 8d7e ab3e 4e7e a63b
000000c0: bbc3 4c3f d285 10bf f712 bd3d f1e3 e73e
000000d0: 0b79 bdbe 2201 61be 3f44 4d3f 505c c93d
000000e0: d6f4 75be 33ca 543f c2ff 193f ec36 913e
000000f0: 92d1 c4be 1d90 003e 33f3 713f 466e 06be

NAM_features.feature_nns.0.feature_nns.hidden_layers.2.weight f4 [64, 32]
-0.17293735 0.15608713 -0.10858692 -0.0012704 -0.19599928 -0.022858072 -0.25243232 0.064963594
-0.20515244 0.040400006 -0.21018586 0.19165063 0.06899375 -0.16215867 -0.050951995 -0.010311482
-0.11406402 -0.24395832 0.17681259 0.120182954 0.0030314694 0.10397149 -0.15704972 -0.0645754
0.20917168 0.19481936 -0.19752643 0.021790257 -0.24924703 0.1453404 0.13760543 0.19477487
0.08432967 0.07420239 -0.034916032 -0.0010509323 0.17708264 -0.06417837 -0.006083344 0.23959526
-0.16329354 0.10051946 0.2666643 0.16198976 -0.14289893 0.07126669 -0.22883262 -0.03649529
-0.036893353 -0.15580803 0.058254357 0.21662927 0.0019017389 -0.16291963 0.20755523 0.02030222
-0.2501071 -0.09363374 -0.11886877 -0.16274278 0.09181135 -0.15794694 -0.1534174 -0.04258463
0.041827388 -0.05625273 0.07514027 -0.0006128414 -0.012379984 -0.044753775 0.094364636 0.22037613
-0.14951469 0.21508767 0.0307468 0.22502293 0.06626387 -0.0661085 -0.05784393 -0.02393451
-0.060400117 0.15162137 0.030373415 0.10275352 0.15164115 -0.11860629 0.012841969 0.047345363
0.05541369 -0.23194543 0.0014298394 0.11502278 -0.037918646 -0.07853412 0.15340519 -0.1279912
-0.14529736 0.18193796 -0.09669832 -0.0010674417 -0.20187955 0.048434816 -0.26523346 -0.106416754
0.16290998 -0.09174344 -0.08419157 -0.13829711 0.20107001 -0.106352806 0.16378647 0.018828072
-0.12645875 0.039668724 0.130077 0.07982828 0.17442776 -0.15531932 -0.09610937 -0.1629423
0.13382053 -0.09501796 -0.12564486 0.09458082 -0.17157009 0.005934252 -0.24454972 -0.22338876
0.12356663 -0.07210139 -0.18843044 -0.014190582 -0.09594428 -0.07731742 -0.009693417 -0.08014725
0.13656329 -0.16049387 -0.20512676 -0.014592019 0.2068309 -0.1710277 -0.19228537 -0.08835806
-0.20903125 0.067550674 -0.046669316 -0.07466748 -0.093432315 -0.14083473 -0.09987029 0.23500073
0.101683035 -0.21680471 0.08564264 0.12653726 0.14424258 -0.01501976 0.022304378 0.24897137
-0.0021033552 0.16229223 0.20574723 -6.302181e-05 0.09813851 -0.067193165 -0.12565562 0.14657003
-0.059002493 -0.0011067465 0.116973214 0.22594948 0.07306536 -0.095967725 0.0807072 0.004302349
0.23041387 -0.10370405 0.13216813 0.069579646 0.15070495 0.19490299 -0.028249608 0.09739142
0.19234806 -0.07090728 -0.22237986 0.21262628 0.08897489 0.0769787 0.12266442 0.23832157
-0.018635428 0.03756855 -0.08892344 0.00031871523 -0.09466808 -0.011474722 0.16526818 0.04630308
0.094358325 0.15411572 -0.17530797 0.17771922 0.12652715 -0.082263686 -0.06259377 0.00090242707
0.10590069 0.13884357 -0.1723156 0.26604924 0.22524452 -0.16120665 -0.09123727 -0.0030360832
0.10024539 0.1231485 -0.106751926 0.11842476 0.03037898 0.23843329 -0.07004637 0.020446412
0.15330587 -0.09960614 -0.16852486 -0.0010320074 -0.06112175 -0.087451234 0.122891665 0.045026995
0.008833512 -0.12077392 -0.19196287 0.07926273 -0.21546297 0.10635486 0.1318951 -0.012100652
-0.08410858 -0.13668104 0.1802253 0.008665997 0.061919443 -0.06294758 0.15981314 0.16149797
0.006320053 0.2023266 0.18284407 -0.013813224 -0.19874313 0.011076583 -0.017266035 0.03415857
00000000: 7d16 31be 4ed5 1f3e d262 debd 8d83 a6ba
00000010: 09b4 48be da40 bbbc cf3e 81be a20b 853d
00000020: 7b13 52be 7a7a 253d f63a 57be 1040 443e
00000030: 984c 8d3d ec0c 26be 0ab3 50bd 7df1 28bc
00000040: 669a e9bd 36d0 79be 5c0e 353e 7b22 f63d
00000050: 9eab 463b 01ef d43d a4d1 20be 1b40 84bd
00000060: 1a31 563e ba7e 473e 5e44 4abe 7b81 b23c
00000070: 9d3a 7fbe 1dd4 143e 70e8 0c3e 1073 473e
00000080: 09b5 ac3d 6cf7 973d 1d04 0fbd 70bf 89ba
00000090: 2755 353e f36f 83bd ca56 c7bb 7658 753e
000000a0: 6c36 27be 26dd cd3d 3988 883e a5e0 253e
000000b0: 1954 12be 45f4 913d 1953 6abe 167c 15bd
000000c0: 7c1d 17bd 248c 1fbe 1f9c 6e3d 10d4 5d3e
000000d0: c543 f93a 67d4 26be 5c89 543e d750 a63c
000000e0: 0a0e 80be 0cc3 bfbd 7871 f3bd 0ba6 26be
000000f0: 9707 bc3d d8bc 21be 7319 1dbe 396d 2ebd
00000100: 3253 2b3d 4369 66bd 24e3 993d 17a7 20ba
00000110: 6bd5 4abc bc4f 37bd 3f42 c13d 48aa 613e
00000120: 611a 19be f13f 5c3e b7e0 fb3c 696c 663e
00000130: 5ab5 873d e563 87bd c2ed 6cbd 4e12 c4bc
00000140: 1d66 77bd a242 1b3e abd1 f83c 7070 d23d
00000150: d147 1b3e dbe7 f2bd 1f67 523c 36ed 413d
00000160: 77f9 623d 1a83 6dbe 7369 bb3a 1091 eb3d
00000170: 9550 1bbd 7fd6 a0bd 4016 1d3e 2010 03be
00000180: d5c8 14be f24d 3a3e c509 c6bd 66e9 8bba
00000190: 83b9 4ebe 9663 463d aecc 87be 07f1 d9bd
000001a0: e0d1 263e fce3 bbbd a16c acbd c29d 0dbe
000001b0: 4ce5 4d3e 80cf d9bd a4b7 273e 543d 9a3c
000001c0: 677e 01be ac7b 223d e832 053e 027d a33d
000001d0: 319d 323e 070c 1fbe fdd4 c4bd 59da 26be
000001e0: 4008 093e c798 c2bd 0ca9 00be 97b3 c13d
000001f0: 12b0 2fbe 1d74 c23b 3e6b 7abe 06c0 64be
00000200: 8010 fd3d e5a9 93bd e9f3 40be 9d7f 68bc
00000210: 6f7e c4bd 9858 9ebd 23d1 1ebc 3e24 a4bd
00000220: 3fd7 0b3e 8158 24be c00c 52be 5d13 6fbc
00000230: 7bcb 533e e321 2fbe 75e6 44be 12f5 b4bd
00000240: 4a0c 56be 0258 8a3d 5328 3fbd 44eb 98bd
00000250: 7159 bfbd fb36 10be cb88 ccbd 08a4 703e
00000260: 323f d03d 0e02 5ebe 6965 af3d fc92 013e
00000270: 54b4 133e 7015 76bc acb7 b63c 5af2 7e3e
00000280: 72d8 09bb ef2f 263e 67af 523e 942a 84b8
00000290: d8fc c83d 929c 89bd deab 00be 7416 163e
000002a0: 99ac 71bd 4010 91ba a78f ef3d 4d5f 673e
000002b0: 4ba3 953d ba8a c4bd d149 a53d b8fa 8c3b
000002c0: 9df1 6b3e ca62 d4bd 1557 073e c67f 8e3d
000002d0: 6652 1a3e a694 473e b96b e7bc 2775 c73d
000002e0: e4f6 443e d637 91bd 8cb7 63be b4ba 593e
000002f0: 7838 b63d 02a7 9d3d 7c37 fb3d 920a 743e
00000300: 53a9 98bc 7be1 193d 7e1d b6bd 3c19 a739
00000310: 57e1 c1bd 7900 3cbc 103c 293e 4ca8 3d3d
00000320: f03e c13d 83d0 1d3e ef83 33be 07fc 353e
00000330: 5590 013e dd79 a8bd 2a31 80bd db90 6c3a
00000340: 76e2 d83d 022d 0e3e 8073 30be 9b37 883e
00000350: 80a6 663e 5b13 25be 9bda babd 06f9 46bb
00000360: 744d cd3d 4835 fc3d c1a0 dabd ae88 f23d
00000370: 57dd f83c db27 743e 7974 8fbd 3c7f a73c
00000380: 37fc 1c3e 4efe cbbd c891 2cbe 6c44 87ba
00000390: cd5a 7abd a219 b3bd a0ae fb3d 3a6e 383d
000003a0: 6fba 103c 5158 f7bd ea91 44be 8054 a23d
000003b0: 53a2 5cbe 94d0 d93d 820f 073e d041 46bc
000003c0: 1f41 acbd 1df6 0bbe fb8c 383e d3fb 0d3c
000003d0: 3e9f 7d3d a9ea 80bd 0ea6 233e b95f 253e
000003e0: 7218 cf3b b42e 4f3e 7a3b 3b3e dc50 62bc
000003f0: 5283 4bbe 8e7a 353c 8071 8dbc dbe9 0b3d

NAM_features.feature_nns.0.feature_nns.hidden_layers.2.bias f4 [64]
-0.41908914 -0.30378944 -0.25673538 -0.380725 -0.7354466 0.15542363 0.096620865 0.1943739
0.2954763 0.78503937 0.22757985 0.23891059 -0.40209407 -0.44824252 -0.49511868 -0.16572835
0.24377121 0.28326043 0.5239454 -0.09152049 -0.18699215 0.016968613 -0.7570959 -0.29209507
0.21077368 0.14931779 0.6181057 0.07990798 0.81883997 0.06124967 0.34238487 0.41488478
-0.6777074 -0.75041884 -0.53407264 0.27911162 0.7148943 -0.32989764 0.3353739 0.051151734
-0.39966697 0.57298595 0.48564488 0.08763096 -0.63051146 -0.20759104 0.3041176 -0.57107174
-0.38596818 -0.10844635 0.18433079 -0.26085016 -0.17139262 0.20811892 0.54828453 -0.39455682
-0.081461586 -0.23057339 0.6765085 0.5208457 0.27990404 0.1393559 0.3859957 0.14898124
00000000: da92 d6be 4a8a 9bbe d272 83be 63ee c2be
00000010: 3a46 3cbf 5f27 1f3e 29e1 c53d f409 473e
00000020: ab48 973e 57f8 483f b10a 693e faa4 743e
00000030: 46df cdbe 0b80 e5be 3280 fdbe b1b4 29be
00000040: 299f 793e 8307 913e 4921 063f 186f bbbd
00000050: df7a 3fbe c301 8b3c 09d1 41bf 7c8d 95be
00000060: 0ed5 573e c3e6 183e 2d3c 1e3f cca6 a33d
00000070: 7f9f 513f efe0 7a3d 124d af3e c76b d43e
00000080: 3b7e 2dbf 731b 40bf fcb8 08bf b8e7 8e3e
00000090: 5003 373f 58e8 a8be 21b6 ab3e 7b84 513d
000000a0: 26a1 ccbe 35af 123f 72a6 f83e dc77 b33d
000000b0: 3369 21bf bf92 54be 4db5 9b3e c231 12bf
000000c0: 9f9d c5be 1f19 debd 36c1 3c3e 278e 85be
000000d0: 8c81 2fbe 201d 553e 605c 0c3f 5a03 cabe
000000e0: 55d5 a6bd 6e1b 6cbe a92f 2d3f 2556 053f
000000f0: 954f 8f3e 50b3 0e3e 3aa1 c53e 8a8e 183e

NAM_features.feature_nns.0.feature_nns.output_layer.weight f4 [1, 32]
-0.26014292 0.02784265 -0.11060938 0.004655066 -0.3641233 -0.04769622 0.35750166 0.30215627
0.14338443 0.30804026 0.230971 0.24085256 0.004626263 0.23336333 -0.17948192 -0.034723546
-0.22792646 0.088667594 0.2581487 0.3152879 0.14956567 -0.23508726 -0.17984736 -0.2992702
0.14576483 0.06585006 0.22703314 -0.23775043 -0.37259206 0.3333304 0.32498488 -0.20317584
00000000: 7431 85be 4516 e43c 2c87 e2bd 8689 983b
00000010: 5f6e babe 1d5d 43bd 750a b73e 3ab4 9a3e
00000020: 5ed3 123e 74b7 9d3e a983 6c3e 0ea2 763e
00000030: e897 973b ccf6 6e3e 1cca 37be 473a 0ebd
00000040: 8e65 69be 5b97 b53d 112c 843e 6a6d a13e
00000050: be27 193e b7ba 70be e829 38be f239 99be
00000060: 6043 153e 65dc 863d 607b 683e d974 73be
00000070: 63c4 bebe 48aa aa3e 6b64 a63e 540d 50be

NAM_features.feature_nns.0.output_layer.weight f4 [4, 1]
-1.0010972 -0.09226576 0.40121424 0.17680517
00000000: f423 80bf d5f5 bcbd f46b cd3e 6a0c 353e

NAM_features.feature_nns.1.feature_nns.hidden_layers.0.weight f4 [1, 64]
0.27896082 -0.075795464 -0.32239294 -0.34116048 0.21857692 -0.3105217 -0.5204226 0.36374584
-0.053638596 0.3194804 -0.36874923 0.19608912 0.11690745 0.2792188 -0.0014104914 -0.002590882
0.23849988 -0.37983313 0.1959313 -0.4247413 -0.32588452 0.22841668 0.18655092 -0.4724475
0.09946425 0.33879355 0.28875944 -0.2642078 0.15169239 -0.37532392 0.15935782 0.16942264
-0.0018960107 0.31910396 -0.097221665 0.19576405 -0.51303667 0.25987992 -0.3407583 -0.25432998
0.16417097 0.2661004 -0.25083935 0.11379536 -0.30532494 -0.18027839 -0.402564 -0.31399179
0.25127685 -0.39336848 0.18126689 -0.25132886 -0.21613373 0.27546197 -0.35391462 0.3297587
0.32569775 0.18193811 0.29242477 -0.022279805 0.30399245 0.2946806 0.2452776 0.20545045
00000000: f4d3 8e3e a73a 9bbd b010 a5be 96ac aebe
00000010: a1d2 5f3e b3fc 9ebe 6a3a 05bf e53c ba3e
00000020: 25b4 5bbd ef92 a33e b3cc bcbe 96cb 483e
00000030: 2c6d ef3d c4f5 8e3e 3de0 b8ba c9cb 29bb
00000040: 5039 743e 7d79 c2be 37a2 483e b177 d9be
00000050: 56da a6be 10e6 693e 3407 3f3e a4e4 f1be
00000060: eab3 cb3d 5976 ad3e 47d8 933e 3f46 87be
00000070: 4055 1b3e 752a c0be b22e 233e 217d 2d3e
00000080: 9083 f8ba 9861 a33e 271c c7bd 5f76 483e
00000090: 5f56 03bf fb0e 853e df77 aebe 8a37 82be
000000a0: 6f1c 283e 503e 883e 046e 80be 8b0d e93d
000000b0: 8d53 9cbe e69a 38be de1c cebe 88c3 a0be
000000c0: 5ca7 803e 9867 c9be 079e 393e 2dae 80be
000000d0: 2952 5dbe 5a09 8d3e 4c34 b5be 22d6 a83e
000000e0: dbc1 a63e fc4d 3a3e b3b8 953e 2384 b6bc
000000f0: e6a4 9b3e 60e0 963e 0d2a 7b3e 9a61 523e

NAM_features.feature_nns.1.feature_nns.hidden_layers.1.weight f4 [64, 64]
-0.023481637 -0.043546513 0.008781222 0.24222326 -0.029881032 0.17580971 0.06742588 -0.11579381
-0.035436846 -0.23214588 0.09825448 -0.12631214 -0.062220488 0.16196167 0.047775034 0.04303173
-0.27771762 0.22313859 0.0938854 -0.14021738 0.0041294517 -0.007010255 -0.050870977 -0.10286005
-0.0014080625 0.072491996 0.13866064 -0.0005031347 0.25594193 0.03597158 -0.005083244 0.016216803
-0.091904506 -0.030900162 -0.25585556 -0.2369591 -0.10270674 0.18349907 0.08916178 -0.16472505
0.0253534 0.3189057 0.030965514 -4.9364e-41 0.12399217 -0.08041983 0.24777734 0.089504406
-4.9632344e-08 -0.030518835 -0.12154621 -0.092589855 0.13726972 -0.021586332 -0.111566044 3.100948e-14
-0.08038984 0.0042337663 0.060807195 -0.26877677 -0.08483695 0.09229114 0.06519527 0.13024431
0.13361049 0.16533779 4.001496e-09 -0.1257933 -0.06841447 -0.13591585 0.10750592 -0.010864209
-0.18049449 0.0061306083 -0.045466527 -0.064635515 -0.043851558 0.08312261 0.15301242 0.10728837
-0.005560128 -0.006404294 -0.016049204 0.16130188 -0.00014280948 0.010710419 0.16200913 -0.10115978
2.1960906e-09 -0.023948647 -0.034149934 8.2617817e-07 -0.15431495 -0.053614005 0.17482185 0.0009608985
0.040142685 0.0014483177 0.0122271 0.06053204 0.11652901 -0.12375944 0.13008055 -0.14121254
0.08431555 0.004131251 0.08123585 -3.5014602e-35 -0.105303854 0.003023885 0.023460362 0.047796644
-3.6368766e-14 -0.0034603993 -0.016860912 -0.114633724 0.16771823 0.11154223 -0.0003735942 -2.9819446e-15
0.026361085 3.574827e-05 0.13685992 0.12636024 0.0011539473 0.046713922 0.056343094 -0.109818846
0.035850205 0.16991132 -6.0934875e-05 -0.02507522 -0.008675048 -0.16998568 -0.061587576 0.064379044
-0.22336483 0.1078849 0.051558636 -0.08951703 -0.15263566 -0.01679075 -0.015486365 0.094165064
0.009858277 0.08385363 -0.016087413 -0.095420405 -0.0019573055 0.0060445005 -0.22415732 0.20207384
-1.28105585e-05 0.052190524 -0.18244404 -1.2351316e-05 -0.18670902 0.088654764 0.2261532 -0.0007879424
-0.058850892 -0.0025000863 -0.049255166 0.24111797 0.032603152 -0.13959847 -0.07435626 -0.067803815
-0.032050423 -0.026464831 0.16186439 1.3263013e-13 0.08486803 -0.00012950267 0.053624023 -0.10243681
-4.9417e-41 0.06312919 -0.03904796 -0.16665645 0.06796107 -0.1878497 0.00020882685 4.9286e-41
0.08969646 -0.00027774615 0.054574855 0.11196387 -0.1711927 -0.16595511 0.026941678 0.05917944
-0.15017392 -0.1578731 -0.020135887 -0.028836034 0.08937759 -0.21557331 -0.09419962 -0.1388897
0.117464736 0.21688463 -0.033675425 -0.0774722 0.15026085 0.11197365 -0.22801748 -0.23198079
-0.13131592 0.08345562 -0.043851122 0.23716374 -0.0022012081 0.039365515 0.0050515803 -0.20954557
0.02612089 -0.11428668 -0.03203672 -0.01441794 -0.23763838 0.11131438 0.13738655 0.04632312
-0.16326453 -0.053729206 0.19345038 -0.14715403 0.22795424 -0.054365277 0.11622606 0.020350453
-0.15917407 0.084473975 0.095271364 -4.9501e-41 -0.004151157 -0.1497889 0.07865061 -0.10332526
1.6914521e-06 0.03818783 0.024982309 0.021432655 0.04639594 -0.00497274 0.050121702 -1.0314e-41
-0.09306716 -0.021946916 0.098786674 0.021554383 0.13536726 0.04729206 0.19210088 -0.087461546
00000000: 905c c0bc d45d 32bd 1ddf 0f3c 6009 783e
00000010: 11c9 f4bc 7607 343e 9416 8a3d 4e25 edbd
00000020: 3a26 11bd a6b7 6dbe a539 c93d f857 01be
00000030: e9da 7ebd 48d9 253e c1af 433d 0a42 303d
00000040: 0131 8ebe 717e 643e fd46 c03d 2595 0fbe
00000050: 5a50 873b 48b6 e5bb 165e 50bd 4aa8 d2bd
00000060: bd8e b8ba af76 943d 0efd 0d3e cce4 03ba
00000070: d20a 833e ef56 133d 5791 a6bb 1ad9 843c
00000080: 6e38 bcbd 5622 fdbc 80ff 82be 68a5 72be
00000090: e957 d2bd 2ee7 3b3e 749a b63d afad 28be
000000a0: efb1 cf3c 9c47 a33e 64ab fd3c 9b89 0080
000000b0: 9bef fd3d 27b3 a4bd 58b9 7d3e 164e b73d
000000c0: 572b 55b3 a302 fabc 38ed f8bd c09f bdbd
000000d0: 6f90 0c3e d2d5 b0bc bd7c e4bd 7fa7 0b29
000000e0: 6ea3 a4bd 68bb 8a3b f710 793d 1c9d 89be
000000f0: ffbe adbd 2303 bd3d 1985 853d c45e 053e
00000100: 30d1 083e 4f4e 293e 887d 8931 f5cf 00be
00000110: e31c 8cbd 862d 0bbe 102c dc3d ccff 31bc
00000120: 8cd3 38be 45e3 c83b 1c3b 3abd a05f 84bd
00000130: b19d 33bd 303c aa3d 4aaf 1c3e 01ba db3d
00000140: bc31 b6bb 1ddb d1bb 9f79 83bc 522c 253e
00000150: 21bf 15b9 c17a 2f3c b9e5 253e dc2c cfbd
00000160: 09ea 1631 f42f c4bc cde0 0bbd 88c6 5d35
00000170: bd04 1ebe 5c9a 5bbd 8004 333e cfe4 7b3a
00000180: a86c 243d 7ad5 bd3a 2d54 483c 72f0 773d
00000190: c3a6 ee3d 9775 fdbd d633 053e 059a 10be
000001a0: a2ad ac3d 725f 873b fb5e a63d 682b 3a86
000001b0: 8ca9 d7bd 5f2c 463b f22f c03c 6ac6 433d
000001c0: 55ca 23a9 dec7 62bb e51f 8abc 16c5 eabd
000001d0: 54be 2b3e 4170 e43d f7de c3b9 2bdf 56a7
000001e0: 34f3 d73c 6af0 1538 0225 0c3e 9464 013e
000001f0: 0c40 973a 1957 3f3d 04c8 663d b4e8 e0bd
00000200: aad7 123d 3cfd 2d3e 5394 7fb8 8c6a cdbc
00000210: ca21 0ebc ba10 2ebe 4143 7cbd 29d9 833d
00000220: c0b9 64be c2f2 dc3d 262f 533d b454 b7bd
00000230: 864c 1cbe c18c 89bc 86ba 7dbc 9dd9 c03d
00000240: 9c84 213c 74bb ab3d c0c9 83bc c66b c3bd
00000250: 2346 00bb f210 c63b 7f89 65be 72ec 4e3e
00000260: eeec 56b7 bbc5 553d 9cd2 3abe 8038 4fb7
00000270: a630 3fbe a190 b53d b494 673e eb8d 4eba
00000280: a20d 71bd 7dd8 23bb c9bf 49bd a1e7 763e
00000290: e28a 053d e7f2 0ebe 1848 98bd badc 8abd
000002a0: 4e47 03bd c6cc d8bc c7bf 253e 0854 152a
000002b0: 4acf ad3d 1ccb 07b9 dda4 5b3d 64ca d1bd
000002c0: c189 0080 e049 813d c1f0 1fbd fda7 2abe
000002d0: 2c2f 8b3d ac5b 40be 88f8 5a39 6489 0000
000002e0: c7b2 b73d 759e 91b9 e289 5f3d 504d e53d
000002f0: 244d 2fbe 23f0 29be cbb4 dc3c 2466 723d
00000300: 31c7 19be 7ca9 21be 04f4 a4bc 8c39 ecbc
00000310: 990b b73d 40bf 5cbe bbeb c0bd 1a39 0ebe
00000320: 5a91 f03d 0117 5e3e 3eef 09bd bfa9 9ebd
00000330: fbdd 193e 7152 e53d 6a7d 69be 5f8c 6dbe
00000340: ae77 06be c8ea aa3d 3c9d 33bd 0ddb 723e
00000350: 2542 10bb bc3d 213d ba87 a53b 1d93 56be
00000360: 7afb d53c 230f eabd f038 03bd 3939 6cbc
00000370: 7a57 73be cbf8 e33d 0faf 0c3e 50bd 3d3d
00000380: d12e 27be 2813 5cbd db17 463e 8caf 16be
00000390: d66c 693e 20ae 5ebd ee07 ee3d feb5 a63c
000003a0: 87fe 22be b100 ad3d a21d c33d fd89 0080
000003b0: 6e06 88bb 4362 19be 9213 a13d 329c d3bd
000003c0: da05 e335 d86a 1c3d b3a7 cc3c 8993 af3c
000003d0: ab09 3e3d 5ef2 a2bb 6a4c 4d3d c01c 0080
000003e0: ff99 bebd 05ca b3bc ab50 ca3d d192 b03c
000003f0: b79d 0a3e 52b5 413d 18b6 443e 0a1f b3bd

NAM_features.feature_nns.1.feature_nns.hidden_layers.1.bias f4 [64]
0.28448138 0.011561457 -0.036724932 -0.40613177 -0.5651327 -0.71836585 -0.064406425 -0.4356528
0.58310735 -0.19119233 -0.61686337 0.54828423 0.9103469 -0.29964066 -0.30250788 0.14969374
0.09775955 -0.43266678 0.32822254 -0.23619461 -0.4324676 0.04480143 0.623911 -0.054155685
0.13650987 -0.66823417 0.07263971 -0.24598214 0.37166497 -0.313033 0.4204816 0.5980753
-0.76520467 0.4235793 -0.7455611 0.39294484 -0.694201 -0.11142126 -0.520081 -0.917354
-0.02495884 -0.61302215 -0.38432214 0.15426946 -0.39791933 0.41519254 -0.22316031 0.07461225
0.5039369 -0.27768844 -0.31927803 -0.31465417 -0.30664137 -0.1816827 -0.5381108 0.047904447
-0.2852981 -0.042597823 -0.18856905 -0.4585024 0.24851617 -0.113830075 0.28139156 -0.14462675
00000000: 8ba7 913e 446c 3d3c e26c 16bd 81f0 cfbe
00000010: 89ac 10bf d3e6 37bf 84e7 83bd e20d dfbe
00000020: 8646 153f ecc7 43be c2ea 1dbf 5b5c 0c3f
00000030: 7f0c 693f 806a 99be 50e2 9abe 5149 193e
00000040: 2936 c83d 8086 ddbe c90c a83e 00dd 71be
00000050: 656c ddbe b481 373d a2b8 1f3f 5ad2 5dbd
00000060: 3ec9 0b3e 6511 2bbf 21c4 943d bee2 7bbe
00000070: df4a be3e dd45 a0be 5d49 d73e 761b 193f
00000080: 74e4 43bf 63df d83e 18dd 3ebf 1130 c93e
00000090: 28b7 31bf d430 e4bd 0724 05bf b6d7 6abf
000000a0: 7b76 ccbc 05ef 1cbf dfc5 c4be d0f8 1d3e
000000b0: 15bc cbbe 1e94 d43e 2384 64be 4fce 983d
000000c0: 0202 013f 2e2d 8ebe 6978 a3be 5a1a a1be
000000d0: 1900 9dbe 080b 3abe a1c1 09bf 7437 443d
000000e0: 9812 92be 0e7b 2ebd 3f18 41be d4c0 eabe
000000f0: 067b 7e3e be1f e9bd 8e12 903e 0919 14be

NAM_features.feature_nns.1.feature_nns.hidden_layers.2.weight f4 [64, 32]
0.015080398 0.07855176 0.113916375 -0.1604722 -0.25842804 -0.032663368 -0.038136743 0.013148958
-0.23866172 -0.19158374 0.0944519 -0.08611516 0.022796135 -0.047319997 -0.099316984 0.025495637
0.17710613 0.109285094 -0.15198334 0.07495467 -0.13751467 0.09184706 0.085089415 -0.26783863
0.010330529 -0.30791703 0.09687237 0.057371948 -0.13491848 -0.1325435 0.18218021 -0.08617974
-0.04751672 -0.06523471 0.09912986 -0.23360221 0.13308898 -0.09948644 -0.058513496 0.049848646
0.072628714 -0.31604394 -0.11837928 -0.16190319 -0.036681976 0.06367235 0.1237492 -0.017061533
-0.09332014 0.1282703 0.037268825 0.12292487 0.0035957566 0.13187227 -0.12513927 -0.17335397
0.0990143 -0.26463598 -0.28243476 0.20456697 -0.17439982 -0.05196278 0.1371395 0.26316243
0.11911025 0.10328016 -0.19351311 -0.08286371 -0.09131481 0.025904728 0.034040898 -0.20002337
0.16171297 -0.04712156 0.23119442 -0.032620993 0.1128794 0.09447724 -0.15149157 0.03246168
0.05654995 -0.032669656 -0.054704886 -0.05505802 -0.10420527 0.1481454 -0.0947212 -0.24170226
-0.27220422 0.2290883 -0.18676586 -0.15388016 0.08289315 -0.11447014 -0.043576945 0.045011166
0.12988934 0.20828809 -0.21057847 0.09633323 0.13668402 -0.09672162 -0.076113895 -0.09569305
-0.068514735 0.029002016 0.13566361 0.02035249 -0.0021074642 -0.08592696 0.19802268 0.30277988
0.20443301 -0.27974266 0.0689893 0.09790569 -0.1916956 -0.31888986 -0.0035766568 0.1590612
0.15937553 0.21854971 0.23779152 -0.0023611037 -0.21975605 0.089380704 -0.1320641 -0.08383219
0.21152908 -0.104050666 -0.16144569 -0.02869582 0.14806616 -0.12841253 -0.0957644 -0.19651154
-0.016506566 0.011204066 -0.11468092 -0.057565782 0.20706646 -0.09729396 0.042650316 -0.1499293
-0.14650306 -0.10167688 -0.05544679 -0.10664187 -0.09121921 0.19075009 0.08460069 0.19963631
0.21184573 -0.008604979 -0.17650926 0.1002381 -0.13584204 0.012266642 -0.08168642 0.08926369
-0.06881344 -0.18009408 -0.02905912 0.0855514 0.11357372 0.00053043314 0.019018363 -0.008434523
-0.17356144 0.24490218 -0.17093827 0.11889801 -0.18050316 -0.07682597 -0.29001573 -0.20512119
0.007040323 -0.050465327 0.061309464 0.06840295 -0.18120569 -0.17480747 -0.22592579 0.06291576
-0.01607558 0.1389092 0.23997605 -0.22253102 -0.2194856 0.1510171 -0.2123048 0.104901984
-0.24634057 0.01655963 0.029763531 -0.033518445 0.07677565 -0.018646952 -0.0305779 -0.25514093
0.23549424 -0.1863469 -0.27140504 -0.13316436 -0.09314634 -0.06503857 -0.27683046 0.29998747
-0.280291 0.036484517 -0.12390662 -0.3450303 -0.08856229 -0.24447285 0.0613356 -0.1030067
-0.070992775 0.2619841 0.26851368 -0.17673518 0.13843213 0.0022112366 0.07151633 -0.2950546
0.07409218 -0.07404046 -0.23031527 -0.077883296 0.10332368 0.08533841 -0.0695123 0.27746505
0.189755 0.08817187 0.064666115 -0.11586665 0.079259284 -0.13811812 0.109916374 -0.13407384
0.25167495 0.11749188 -0.13047965 0.16050507 -0.02066857 0.29154927 0.057708707 -0.010258242
0.018884273 -0.17883539 0.10400592 -0.058708325 -0.20288928 0.02717308 0.28951582 0.18984246
00000000: c613 773c bfdf a03d fd4c e93d d352 24be
00000010: ae50 84be 06ca 05bd 4635 1cbd ba6e 573c
00000020: bd63 74be 872e 44be ff6f c13d 255d b0bd
00000030: f6be ba3c 9dd2 41bd b466 cbbd 3adc d03c
00000040: 4f5b 353e ddd0 df3d 85a1 1bbe d681 993d
00000050: a5d0 0cbe 501a bc3d 5c43 ae3d 2522 89be
00000060: 6141 293c 4da7 9dbe 0565 c63d d9fe 6a3d
00000070: 1228 0abe 7cb9 07be 738d 3a3e 017f b0bd
00000080: e4a0 42bd c799 85bd 9904 cb3d 6b35 6fbe
00000090: 7a48 083e 8cbf cbbd d9ab 6fbd 182e 4c3d
000000a0: 5dbe 943d 83d0 a1be d670 f2bd f3c9 25be
000000b0: d73f 16bd a666 823d 3870 fd3d a1c4 8bbc
000000c0: a11e bfbd 4a59 033e 32a7 183d 09c0 fb3d
000000d0: c9a6 6b3b 8609 073e 8224 00be b483 31be
000000e0: 02c8 ca3d 5e7e 87be 4a9b 90be 017a 513e
000000f0: de95 32be edd6 54bd 4c6e 0c3e 3abd 863e
00000100: 13f0 f33d 8c84 d33d 4d28 46be 73b4 a9bd
00000110: 4203 bbbd 2736 d43c 786e 0b3d edd2 4cbe
00000120: 1698 253e 8902 41bd 3bbe 6c3e 979d 05bd
00000130: 512d e73d 497d c13d 9b20 1bbe 8af6 043d
00000140: eca0 673d 9ed0 05bd 3b12 60bd 8584 61bd
00000150: 9369 d5bd 6eb3 173e 30fd c1bd cc80 77be
00000160: 5a5e 8bbe 2096 6a3e 8d3f 3fbe c392 1dbe
00000170: e2c3 a93d 526f eabd bd7d 32bd a15d 383d
00000180: b601 053e 7949 553e e2a1 57be 5b4a c53d
00000190: e5f6 0b3e fc15 c6bd 9ae1 9bbd b8fa c3bd
000001a0: 7451 8cbd a395 ed3c 67eb 0a3e 44ba a63c
000001b0: 621d 0abb 79fa afbd 75c6 4a3e f705 9b3e
000001c0: e356 513e 6e3a 8fbe 434a 8d3d c782 c83d
000001d0: da4b 44be 8845 a3be 5866 6abb f0e0 223e
000001e0: 5733 233e 7fcb 5f3e 9f7f 733e bfbc 1abb
000001f0: bb07 61be 3b0d b73d d03b 07be 36b0 abbd
00000200: 149b 583e 8418 d5bd 0552 25be 7f13 ebbc
00000210: a89e 173e 937e 03be 2020 c4bd 523a 49be
00000220: c738 87bc 4291 373c d5dd eabd 19ca 6bbd
00000230: 3b09 543e 0e42 c7bd 19b2 2e3d 1187 19be
00000240: e604 16be f83b d0bd 2c1c 63bd 0e67 dabd
00000250: 23d1 babd fe53 433e 2043 ad3d 766d 4c3e
00000260: 16ee 583e e6fb 0cbc d8be 34be a249 cd3d
00000270: 2d1a 0bbe 07fa 483c 364b a7bd e2cf b63d
00000280: 10ee 8cbd 956a 38be 640d eebc 9335 af3d
00000290: 5799 e83d c40c 0b3a 66cc 9b3c f430 0abc
000002a0: 17ba 31be a3c7 7a3e 710a 2fbe cd80 f33d
000002b0: d2d5 38be ef56 9dbd f17c 94be 4a0b 52be
000002c0: 83b2 e63b bbb4 4ebd a21f 7b3d d916 8c3d
000002d0: fc8d 39be bb00 33be 1759 67be fad9 803d
000002e0: efb0 83bc 373e 0e3e 48bc 753e 2cdf 63be
000002f0: d5c0 60be 3aa4 1a3e 6e66 59be dad6 d63d
00000300: b440 7cbe 10a8 873c a6d2 f33c a34a 09bd
00000310: 8d3c 9d3d 7ec1 98bc 817e fabc d5a1 82be
00000320: 6725 713e b9d1 3ebe 9af5 8abe 3d5c 08be
00000330: 82c3 bebd f132 85bd b9bc 8dbe f597 993e
00000340: 4d82 8fbe ca70 153d c1c2 fdbd d0a7 b0be
00000350: 2560 b5bd 1757 7abe 0a3b 7b3d 2df5 d2bd
00000360: a964 91bd c822 863e a07a 893e 11fa 34be
00000370: 27c1 0d3e 65ea 103b 2777 923d 6611 97be
00000380: a4bd 973d 86a2 97bd c4d7 6bbe 4781 9fbd
00000390: 5e9b d33d e8c5 ae3d 775c 8ebd e60f 8e3e
000003a0: 224f 423e 7493 b43d ab6f 843d 7f4b edbd
000003b0: b152 a23d d66e 0dbe d61b e13d a74a 09be
000003c0: 8adb 803e 959f f03d 759c 05be 715b 243e
000003d0: 2251 a9bc f245 953e f75f 6c3d 2f12 28bc
000003e0: 31b3 9a3c a020 37be 0e01 d53d 2478 70bd
000003f0: 35c2 4fbe 149a de3c 6b3b 943e 1066 423e

NAM_features.feature_nns.1.feature_nns.hidden_layers.2.bias f4 [64]
-0.20838904 -0.28884602 0.4322894 -0.47118062 -0.61420953 -0.11191564 -0.23533069 -0.5794513
0.902988 -0.64835787 -0.044721026 0.021902759 0.18682566 -0.28763822 -0.0764323 -0.3028075
-0.54024494 -0.26759082 -0.075805694 0.20088404 0.15189104 -0.022735259 -0.29410377 -0.50067234
0.26227865 0.43660164 0.40359774 -0.31490406 -0.094290204 -0.13825719 0.26248717 -0.25395483
-0.06752995 -0.09165994 -0.13615224 0.1228457 0.5477816 0.035256065 -0.64309376 -0.13023157
-0.18028013 -0.3919468 0.5530525 0.34065658 -0.051455483 0.5496291 -0.19535145 -0.073029146
0.44069245 -0.32820916 0.016782878 0.009166681 -0.3265425 0.62897277 0.46636948 0.33779618
-0.07696649 0.4885351 0.15050544 -0.41285652 0.34973204 0.65605336 -0.8214337 0.61702657
00000000: f063 55be a0e3 93be 0955 dd3e 963e f1be
00000010: d63c 1dbf 0734 e5bd 87fa 70be ec56 14bf
00000020: 392a 673f c8fa 25bf 652d 37bd 6a6d b33c
00000030: 3a4f 3f3e 5145 93be 8a88 9cbd 9609 9bbe
00000040: 7e4d 0abf aa01 89be 0440 9bbd 8cb4 4d3e
00000050: 5389 1b3e 4b3f babc c594 96be 102c 00bf
00000060: 6349 863e 408a df3e 5da4 ce3e 1b3b a1be
00000070: 391b c1bd 4b93 0dbe b864 863e 5e06 82be
00000080: 244d 8abd 35b8 bbbd 7e6b 0bbe 8796 fb3d
00000090: 6a3b 0c3f aa68 103d cba1 24bf 6d5b 05be
000000a0: 5b9b 38be 40ad c8be d994 0d3f 8a6a ae3e
000000b0: fcc2 52bd 7eb4 0c3f 360a 48be 4e90 95bd
000000c0: 71a2 e13e 080b a8be 3f7c 893c d92f 163c
000000d0: 9430 a7be 5c04 213f fbc7 ee3e 9ff3 ac3e
000000e0: 9ba0 9dbd 4621 fa3e 191e 1a3e ee61 d3be
000000f0: 1410 b33e 1df3 273f 7b49 52bf 74f5 1d3f

NAM_features.feature_nns.1.feature_nns.output_layer.weight f4 [1, 32]
0.2227449 -0.25821534 -0.05812265 -0.13159503 -0.3032183 -0.11152894 0.09700195 0.10924702
-0.21215738 -0.32539505 0.3849217 0.21121627 -0.36696535 0.14421052 0.43845493 -0.39052826
0.13165435 0.2852338 -0.2003448 0.28647834 0.1428696 0.10051429 0.3056448 -0.28085563
-0.4624698 -0.46791103 -0.49004212 0.26677126 0.1565875 -0.17710258 0.23120588 0.13716233
00000000: 3d17 643e cd34 84be 0412 6ebd d9c0 06be
00000010: 6e3f 9bbe 4969 e4bd f5a8 c63d e7bc df3d
00000020: c93f 59be 2e9a a6be 7514 c53e 1449 583e
00000030: e2e2 bbbe ecab 133e 2a7d e03e 52f3 c7be
00000040: 66d0 063e 2a0a 923e 3027 4dbe 4aad 923e
00000050: 694c 123e 70da cd3d 7a7d 9c3e 4fcc 8fbe
00000060: d7c8 ecbe 0992 efbe cde6 fabe 3e96 883e
00000070: 7958 203e 615a 35be 3cc1 6c3e 4874 0c3e

NAM_features.feature_nns.1.output_layer.weight f4 [4, 1]
-0.53380686 -0.2873891 0.9412038 0.18301706
00000000: 91a7 08bf aa24 93be bbf2 703f d368 3b3e

NAM_features.feature_nns.2.feature_nns.hidden_layers.0.weight f4 [1, 64]
0.15191688 0.18820797 0.20166256 -0.18887915 0.1517687 0.3016114 -0.0022356266 -0.27410743
0.24441491 -0.14110345 -0.12299086 0.1653934 0.26708433 0.12559633 -0.08092864 0.10653754
0.21759728 -0.0016266565 0.27757224 0.18800735 0.21602552 0.2577729 -0.1831527 0.15256101
0.1693589 -0.0396334 0.2387957 -0.2856514 -0.24417706 0.29362544 -0.08538093 -0.09183912
-0.0315549 -0.13516344 0.24517551 0.13238907 0.27291033 -0.103016764 -0.15789971 0.23828748
-0.16290504 -0.08407257 -0.07061562 -0.257581 0.24835384 -0.023823652 -0.0040605804 0.24996693
-0.1125228 0.2591456 -0.1577986 0.16369973 -0.28060856 -0.10712083 0.209439 0.35963768
-0.00010699306 0.34395048 -0.14560491 0.33393 0.18275517 -0.13482979 0.23802137 0.18368481
00000000: 1990 1b3e 97b9 403e a180 4e3e 8969 41be
00000010: 4169 1b3e cf6c 9a3e 9783 12bb cf57 8cbe
00000020: e747 7a3e 6c7d 10be a2e2 fbbd e35c 293e
00000030: 47bf 883e 539c 003e eabd a5bd 5b30 da3d
00000040: d2d1 5e3e 8935 d5ba f31d 8e3e 0085 403e
00000050: cb35 5d3e cffa 833e 628c 3bbe f438 1c3e
00000060: 6b6c 2d3e a256 22bd dc86 743e e640 92be
00000070: 8d09 7abe 1356 963e 32dc aebd 2616 bcbd
00000080: b63f 01bd 4968 0abe 4a0f 7b3e 0091 073e
00000090: e7ba 8b3e 74fa d2bd 76b0 21be a201 743e
000000a0: 94d0 26be 3d2e acbd ec9e 90bd a8e1 83be
000000b0: 7850 7e3e d229 c3bc 9e0e 85bb 55f7 7f3e
000000c0: 5b72 e6bd bbae 843e f595 21be e7a0 273e
000000d0: edab 8fbe 2a62 dbbd 2d77 563e 6e22 b83e
000000e0: 7661 e0b8 471a b03e 7419 15be dff8 aa3e
000000f0: 2c24 3b3e d210 0abe e0bb 733e df17 3c3e

NAM_features.feature_nns.2.feature_nns.hidden_layers.1.weight f4 [64, 64]
0.28145805 0.04473039 0.008814926 0.003896487 0.00013831024 -0.14218538 -0.0027632832 -0.07118339
0.18284822 -0.08876875 -0.106614426 -0.1489383 0.0369961 -0.11792865 0.16144714 -0.17809379
-0.154858 -0.10034464 0.03899995 0.17001101 0.08489993 -0.21463662 0.30818877 -0.26263684
0.29382375 0.18369558 0.32172906 0.2913501 0.1948717 0.009370514 0.0014921095 -0.049214207
0.02351999 -0.0956927 -0.22816171 -0.08338915 -0.019224402 0.011415116 -0.08640132 -0.121603236
0.0063859154 0.09587075 -0.15721883 -0.06755424 -0.006290596 0.03588284 -0.09085105 0.22349977
-0.057794448 4.9665e-41 -0.032539587 -0.22524442 0.010724239 -0.0004927729 -0.08534116 0.080066964
-0.046831235 -0.05790651 0.18110214 0.09421133 0.090997316 -0.027766805 0.24034551 0.001870439
0.0014849325 -0.1609028 -0.0017589869 -0.0038099645 -1.3257794e-06 0.030176977 0.0012872452 -0.08980122
0.07083336 -0.19833964 0.15395744 0.09207156 0.28340372 -0.14375737 0.008576024 -0.09428844
-0.024214717 -0.1314349 0.14027144 -0.11731859 -0.07671001 -0.11512026 0.18098883 -0.121881396
0.120269924 -0.036390148 0.24909143 0.02399979 0.006900199 -0.0698901 0.056314986 0.018553698
0.1197112 -0.011497103 -0.1878776 -0.12557109 -0.025312405 0.00021969705 -0.07087108 -0.11983537
-0.10078712 -0.034830466 -0.07839181 0.008212455 0.0002546586 0.06851818 0.25842726 0.2510682
0.17510101 5.9754126e-19 0.12215385 -0.19629881 -0.22609174 -1.9269136e-07 -0.01452511 -0.09952314
0.023270521 0.23512554 -0.09386038 -0.016477672 0.23920241 -0.13814552 -0.15002465 0.0021449248
0.22355938 -0.029779995 0.0062066736 0.0010919871 0.000905125 0.1458691 -0.017083675 -0.11937937
0.11717721 -0.21956712 0.0771292 0.06170014 -0.11526951 0.0203266 0.23038183 -0.22566034
-0.14817978 0.080263786 0.16714142 -0.039050434 0.26690182 -0.09396307 0.18717709 0.07400915
-0.12802367 0.10164248 0.032732714 -0.041331265 0.106330015 -0.050067455 -0.07961295 -0.07892401
0.103083566 0.20545143 0.06543389 -0.0090926625 0.0402741 -0.009966508 0.024802146 0.11518907
0.021282554 0.091247775 -0.036081713 0.09755081 -0.003878337 0.15103059 0.25435692 -0.09993472
0.16712236 -4.9383e-41 0.122607574 -0.10211074 -0.07856526 -0.0002277443 -0.10222138 -0.002880524
0.021813473 0.19820674 0.013624847 -0.17614175 -0.096938044 0.1710002 -0.14887574 -0.0039632753
-0.037630785 -0.08255101 0.050420724 -0.00191044 -0.0013409314 0.15212227 -0.0014323158 0.2109358
0.10456213 -0.008250697 0.12403258 0.053920418 0.014652599 0.07950828 0.15051645 0.08986346
-0.1314787 0.18576172 -0.01727619 -0.19352658 0.049494997 0.028051343 -0.11708335 0.059698828
0.024313912 0.0051940596 -0.0036083376 0.114369094 -0.21412869 0.05816901 0.029006565 -0.038312748
0.034908693 -0.22137325 0.19605596 -0.20337018 -0.01676127 0.009246051 0.18674082 0.19166042
-0.16622575 0.075570695 0.017257465 0.0426719 -0.0017281584 -0.11988223 -0.043605283 -0.15088664
0.011080244 7.687445e-10 -0.16630079 -0.093093745 0.00839785 -0.0011640185 0.17377228 -0.083117135
0.078750215 -0.032440566 0.07924066 -0.14003105 0.03628648 0.08368147 -0.041377712 -0.002305311
00000000: 451b 903e 3737 373d 7b6c 103c 345c 7f3b
00000010: 5f07 1139 0b99 11be 3318 35bb 99c8 91bd
00000020: 903c 3b3e 64cc b5bd aa58 dabd 4883 18be
00000030: 3989 173d 9384 f1bd 6652 253e 385e 36be
00000040: 1893 1ebe 7e81 cdbd 69be 1f3d 5e17 2e3e
00000050: 04e0 ad3d b4c9 5bbe ebca 9d3e 5678 86be
00000060: 1170 963e b21a 3c3e acb9 a43e d72b 953e
00000070: 728c 473e c986 193c e392 c33a d694 49bd
00000080: feac c03c 89fa c3bd 39a3 69be eec7 aabd
00000090: 7e7c 9dbc 7706 3b3c 2df3 b0bd 1e0b f9bd
000000a0: f140 d13b e257 c43d f9fd 20be e159 8abd
000000b0: 5821 cebb e3f9 123d 1e10 babd 20dd 643e
000000c0: dfb9 6cbd 728a 0000 3b48 05bd 79a6 66be
000000d0: b8b4 2f3c 6e2d 01ba 59c7 aebd 26fa a33d
000000e0: 1cd2 3fbd 602f 6dbd d772 393e dff1 c03d
000000f0: cd5c ba3d 3677 e3bc 221d 763e 8529 f53a
00000100: 11a2 c23a b4c3 24be ce8d e6ba 99b0 79bb
00000110: 6ff1 b1b5 b535 f73c c8b8 a83a b4e9 b7bd
00000120: 1511 913d 8c19 4bbe 05a7 1d3e 0490 bc3d
00000130: 4b1a 913e 2235 13be 7482 0c3c 4c1a c1bd
00000140: f15d c6bc df96 06be 51a3 0f3e bb44 f0bd
00000150: 231a 9dbd 2cc4 ebbd 2355 393e f49c f9bd
00000160: 1450 f63d d60d 15bd d311 7f3e 359b c43c
00000170: 111b e23b 8a22 8fbd 8baa 663d edfd 973c
00000180: 252b f53d 585e 3cbc fc62 40be b595 00be
00000190: f65b cfbc 7a5e 6639 db24 91bd 3f6c f5bd
000001a0: 7a69 cebd 64aa 0ebd e38b a0bd 888d 063c
000001b0: b383 8539 4253 8c3d 9450 843e 038c 803e
000001c0: ae4d 333e f15c 3021 cc2b fa3d 8e02 49be
000001d0: 9884 67be 99e6 4eb4 bafa 6dbc cad2 cbbd
000001e0: d2a1 be3c c0c4 703e df39 c0bd 2ffc 86bc
000001f0: 7af1 743e 0576 0dbe 10a0 19be de91 0c3b
00000200: c0ec 643e 2df5 f3bc 5a61 cb3b 0221 8f3a
00000210: e945 6d3a b65e 153e 10f3 8bbc 2c7d f4bd
00000220: 9bfa ef3d 34d6 60be eaf5 9d3d 49b9 7c3d
00000230: 6c12 ecbd f883 a63c 37e9 6b3e 8113 67be
00000240: 71bc 17be 5761 a43d 1f27 2b3e 59f3 1fbd
00000250: 5ba7 883e b66f c0bd 5aab 3f3e 1c92 973d
00000260: a318 03be ef29 d03d bd12 063d f94a 29bd
00000270: 8dc3 d93d 8813 4dbd 1d0c a3bd e9a2 a1bd
00000280: 7a1d d33d dc61 523e 3402 863d 64f9 14bc
00000290: 74f6 243d 904a 23bc df2d cb3c 3fe8 eb3d
000002a0: c058 ae3c 1de0 ba3d 6bca 13bd b8c8 c73d
000002b0: b32b 7ebb c3a7 1a3e 123b 823e 93aa ccbd
000002c0: 2022 2b3e a989 0080 ae19 fb3d 701f d1bd
000002d0: d3e6 a0bd a5ce 6eb9 7159 d1bd 2cc7 3cbb
000002e0: 2bb2 b23c b5f6 4a3e c03a 5f3c 815e 34be
000002f0: 7487 c6bd ad1a 2f3e e272 18be 5dde 81bb
00000300: bd22 1abd 8110 a9bd f685 4e3d bb67 faba
00000310: 31c2 afba f1c5 1b3e 8bbc bbba 8eff 573e
00000320: ac24 d63d ee2d 07bc cb04 fe3d a8db 5c3d
00000330: 7411 703c 3dd5 a23d fc20 1a3e 550a b83d
00000340: 5aa2 06be 5238 3e3e cc86 8dbc d52b 46be
00000350: 44bb 4a3d eecb e53c 65c9 efbd c286 743d
00000360: f82d c73c ee32 aa3b dc79 6cbb 583a ea3d
00000370: 8d44 5bbe a142 6e3d 2d9f ed3c d4ed 1cbd
00000380: 6bfc 0e3d abaf 62be e5c2 483e 4640 50be
00000390: ee4e 89bc c07c 173c fc38 3f3e a142 443e
000003a0: 1537 2abe cfc4 9a3d 875f 8d3c bbc8 2e3d
000003b0: 6083 e2ba d184 f5bd 749b 32bd 0782 1abe
000003c0: e989 353c 964f 5330 c14a 2abe efa7 bebd
000003d0: 2397 093c fb91 98ba 5cf1 313e 5139 aabd
000003e0: cb47 a13d 66e0 04bd ed48 a23d 4d64 0fbe
000003f0: 22a1 143d 3161 ab3d ad7b 29bd b314 17bb

NAM_features.feature_nns.2.feature_nns.hidden_layers.1.bias f4 [64]
0.12197417 0.44167677 0.3422061 -0.49393195 0.93666077 0.17290102 -0.09863828 -0.113502175
-0.15143938 0.23256001 0.06730064 0.31340608 0.2651697 -0.26145893 0.11551115 0.15206075
0.5020846 -0.7475055 -0.1651103 0.075175926 0.38580894 -0.15443599 0.085561715 0.43069944
0.30882636 -0.22182883 -0.056263536 0.40598205 -0.304368 0.60454506 -0.06565893 0.8940718
0.14348453 -0.314035 -0.61793184 0.8073207 -0.33454335 0.4648409 -0.26174444 -0.19854458
0.12842353 0.5019323 -0.33926344 -0.15776697 0.1019401 -0.8379476 -0.2656635 -0.4333327
0.23869821 1.043105 0.2890405 -0.1705265 0.7859204 0.12196905 0.29691118 -0.37117139
-0.5829055 -0.5140805 0.33013082 -0.14109406 -0.8228583 0.6719953 -0.15900548 0.46949843
00000000: 98cd f93d 7523 e23e a335 af3e a6e4 fcbe
00000010: 00c9 6f3f f70c 313e de02 cabd d473 e8bd
00000020: ed12 1bbe 3624 6e3e ebd4 893d c376 a03e
00000030: 53c4 873e f2dd 85be 1c91 ec3d d0b5 1b3e
00000040: 9e88 003f 855c 3fbf ad12 29be d6f5 993d
00000050: c088 c53e 7824 1ebe fb3a af3d a384 dc3e
00000060: 7d1e 9e3e 1927 63be 9874 66bd e1dc cf3e
00000070: 1fd6 9bbe 77c3 1a3f 3078 86bd e4e1 643f
00000080: 9ced 123e 32c9 a0be c830 1ebf 92ac 4e3f
00000090: 4449 abbe a0ff ed3e 5e03 86be 454f 4bbe
000000a0: 7581 033e a37e 003f f0b3 adbe aa8d 21be
000000b0: f9c5 d03d bc83 56bf 0c05 88be c9dd ddbe
000000c0: 4e6d 743e 7784 853f 1efd 933e 809e 2ebe
000000d0: 1432 493f e9ca f93d be04 983e 2d0a bebe
000000e0: 4b39 15bf c89a 03bf e806 a93e f67a 10be
000000f0: d7a6 52bf e207 2c3f 55d2 22be 1962 f03e
