best_model.pt (torch, 517960 bytes, 120 tensors)

NAM_features.bias f4 [4]
-0.022463385 0.07333687 -0.0074372506 -0.048625007
00000000: 2205 b8bc a431 963d 2eb4 f3bb 042b 47bd

NAM_features.feature_nns.0.feature_nns.hidden_layers.0.weight f4 [1, 64]
-0.34335944 -0.28049764 -0.00052362273 0.24868259 -0.26189646 -0.30830312 -0.26381776 0.2894315
-0.018316837 0.12009833 -0.14928715 0.25453016 -0.28924567 0.17052309 0.021353656 -0.41136533
0.10585588 -0.22467525 0.29859132 0.05839535 -0.19630873 0.025496937 0.0072848196 0.08202945
0.07540332 0.11569645 -0.23440383 0.0543554 -0.18020901 0.020729888 0.22011466 0.21034831
0.238044 0.2782521 0.19485092 -0.03972377 0.09827601 -0.031366568 -0.012862225 -0.14071193
-0.17971876 -0.19488724 0.2366178 0.14146304 0.18784457 0.256236 0.016235527 -0.20233437
0.1601348 -0.42064616 -0.19736214 -0.034901757 0.26452577 0.26769277 -0.0861808 0.20191124
-0.103985004 -0.18688291 0.07048761 0.20212115 -0.105037875 0.059244163 -0.00042552536 -0.1905422
00000000: cfcc afbe 639d 8fbe ba43 09ba a6a6 7e3e
00000010: 4b17 86be e8d9 9dbe 1f13 87be 5e30 943e
00000020: 310d 96bc 1df6 f53d bbde 18be c751 823e
00000030: 0218 94be 9b9d 2e3e dded ae3c 7a9e d2be
00000040: f8ca d83d 4511 66be f6e0 983e f62f 6f3d
00000050: 2805 49be f4de d03c 7fb5 ee3b 0eff a73d
00000060: 0e6d 9a3d 43f2 ec3d 8f07 70be c5a3 5e3d
00000070: b688 38be bad1 a93c bd65 613e 8c65 573e
00000080: cec1 733e 0f77 8e3e 0087 473e 64b5 22bd
00000090: ef44 c93d 3b7a 00bd 15bc 52bc ca16 10be
000000a0: 3208 38be 8590 47be f04b 723e b0db 103e
000000b0: 545a 403e 5d31 833e 5e00 853c be30 4fbe
000000c0: 61fa 233e ef5e d7be 4d19 4abe 25f5 0ebd
000000d0: ec6f 873e 070f 893e 8f7f b0bd d2c1 4e3e
000000e0: 17f6 d4bd 3c5e 3fbe cf5b 903d d9f8 4e3e
000000f0: 191e d7bd 02aa 723d 0c19 dfb9 7f1d 43be

NAM_features.feature_nns.0.feature_nns.hidden_layers.1.weight f4 [64, 64]
-0.0737215 0.19437645 -0.09460974 -0.053199276 -0.1300267 0.0064443843 0.21324667 -0.03133028
-0.20007844 -0.17099734 0.03381067 -0.077408716 -0.20445694 -0.039656922 -0.18100815 0.027977323
-0.019072745 0.033782586 -0.12970069 -0.0011942434 0.022336056 0.07733427 -0.09758704 -1.1043703e-05
0.057984687 -0.05419285 0.0026443743 -0.10199203 -0.12625504 0.011700031 0.051721584 -0.023265954
0.018714407 -0.20909363 -0.08932557 0.2257701 -0.15010817 -0.0042846184 -0.051388245 0.050505094
-0.09277278 -0.09509563 -0.020030253 -7.425745e-09 0.012399699 1.8902196e-37 0.21344352 0.004361818
-0.009894631 -0.11240984 0.14540245 0.09668495 0.0034333759 0.059835583 -2.1362794e-08 0.0032612907
-0.022471126 -0.003051307 -0.007960944 -0.2042212 -0.02039994 0.035728216 -0.00899033 -0.13488631
-0.00992154 -0.14583452 0.07500068 -0.20057334 -0.18229091 0.14998735 0.1400503 0.03806738
-0.20622426 -0.0739065 0.0926216 0.0061407955 0.087874465 0.18282636 -0.038494565 0.011243742
-0.0016184697 0.16919763 -0.16601494 -0.0005289864 0.08428756 0.21525316 -0.03920167 -1.658165e-10
0.013827761 -0.072883844 -0.00039285305 -0.107837215 0.09791587 0.0020195676 -0.041167222 0.07303492
0.0012532106 -0.09734777 -0.11106224 0.091580644 -0.20631216 -0.0010074703 -0.11691129 -0.11452367
0.13504584 -0.08696844 0.17726183 4.9394e-41 -0.000408615 -4.9093e-41 0.22268006 0.003833488
0.17741826 0.15367106 -0.05706612 -0.03383509 -0.04277177 -0.0023254445 -4.4709803e-33 0.0039124186
0.051375244 -0.0011985768 -0.0004116072 0.0494347 -0.047952283 -0.00038177345 -8.523593e-06 -0.09045352
-0.07744632 -0.17258266 0.056742717 -0.05261004 -0.14416161 -0.012594439 -0.134639 -0.1152049
-0.05049811 0.18270724 -0.09333625 -0.027428916 -0.11190919 0.04010129 0.18533286 -0.13325906
-0.0030373603 0.07936514 -0.20899518 -0.001273855 0.16336773 -0.034004197 0.19890077 -1.8404716e-08
-0.0010205611 0.12111518 -0.019199219 -0.05173408 0.15968679 -0.04390328 -0.09393624 -0.01781367
-0.04112503 -0.16417001 0.051393636 -0.13917926 0.11666711 -0.054798853 -0.19668552 0.050001323
0.15794972 0.053807802 -0.1544714 -2.017505e-15 -0.0010389962 4.9298e-41 -0.12740971 0.004578115
0.02097856 -0.15824856 0.10256347 0.0065747625 0.12396711 0.111769184 -2.1094337e-10 0.009311116
-0.11146448 -0.0012801613 -0.052611195 -0.14300038 0.10679659 -0.012259049 0.0018236574 0.16510883
-0.06016737 -0.18144032 0.054054018 -0.17509432 -0.10814094 -0.18879715 0.05529752 -0.19073832
0.15289341 0.22530845 0.14413838 0.1133218 -0.09579541 -0.19463482 -0.090577886 -0.17727675
-0.01391413 0.10658938 0.053188838 0.0016468551 -0.13186371 -0.19384564 0.019300615 1.3556515e-23
0.18152094 0.13166483 -0.007812833 0.1355467 0.24546279 0.09477676 0.16337281 -0.08068632
-0.1959564 0.1009639 -0.1278176 -0.06574242 -0.16957152 0.0016387035 0.10365279 0.0521946
-0.15828858 -0.05758251 -0.078768075 4.9565e-41 -0.0003496454 -4.9292e-41 -0.029560015 0.002780982
-0.044663228 0.07420505 -0.1271821 0.019584853 -0.15131642 -0.071894765 1.2111093e-20 -0.0028974162
0.23492 0.017828122 -0.060848717 -0.11951001 -0.032628834 -0.020925216 0.031194996 0.13313317
00000000: 4cfb 96bd 9f0a 473e c0c2 c1bd 7ce7 59bd
00000010: b825 05be 6a2b d33b 565d 5a3e 2e54 00bd
00000020: 5de1 4cbe ed19 2fbe 0f7d 0a3d 7688 9ebd
00000030: 295d 51be 4c6f 22bd 335a 39be b330 e53c
00000040: 723e 9cbc 9c5f 0a3d 42d0 04be 2988 9cba
00000050: 1bfa b63c 6e61 9e3d b7db c7bd 5848 39b7
00000060: 5a81 6d3d 52f9 5dbd 3d4d 2d3b 33e1 d0bd
00000070: 0049 01be 7db1 3f3c 03da 533d 3e98 bebc
00000080: f54e 993c a41c 56be 53f0 b6bd 4730 673e
00000090: f5b5 19be fc65 8cbb 7b7c 52bd 6ede 4e3d
000000a0: a8ff bdbd 7fc1 c2bd 7c16 a4bc 8b25 ffb1
000000b0: 1b28 4b3c 45a4 8002 f090 5a3e 95ed 8e3b
000000c0: 171d 22bc 2137 e6bd 61e4 143e c202 c63d
000000d0: 7d02 613b 2816 753d 4881 b7b2 61bb 553b
000000e0: 5e15 b8bc 70f8 47bb 9f6e 02bc 5d1f 51be
000000f0: c61d a7bc c057 123d 2d4c 13bc a31f 0abe
00000100: f48d 22bc a555 15be f599 993d 1963 4dbe
00000110: 78aa 3abe 4996 193e 5969 0f3e 8bec 1b3d
00000120: 742c 53be 4b5c 97bd 65b0 bd3d ba38 c93b
00000130: 87f7 b33d d536 3b3e 7aac 1dbd ac37 383c
00000140: d522 d4ba 2542 2d3e d2ff 29be adab 0aba
00000150: f59e ac3d 536b 5c3e ee91 20bd 3251 36af
00000160: d58d 623c 2044 95bd d8f7 cdb9 c2d9 dcbd
00000170: 1e88 c83d b95a 043b f69e 28bd 5593 953d
00000180: c542 a43a 455e c7bd 9a74 e3bd a28e bb3d
00000190: 7f43 53be 180d 84ba 306f efbd 638b eabd
000001a0: 7549 0a3e 821c b2bd 2084 353e b189 0000
000001b0: 603b d6b9 da88 0080 3e06 643e 423b 7b3b
000001c0: 22ad 353e f25b 1d3e 2abe 69bd aa96 0abd
000001d0: 7431 2fbd 7c66 18bb 9eb7 b989 bf33 803b
000001e0: d96e 523d 9019 9dba fccc d7b9 0a7c 4a3d
000001f0: 9d69 44bd c428 c8b9 8e00 0fb7 b23f b9bd
00000200: 2d9c 9ebd 82b9 30be 0d6b 683d a07d 57bd
00000210: 1a9f 13be e858 4ebc cede 09be 8cf0 ebbd
00000220: 1bd7 4ebd 9b17 3b3e 1327 bfbd 9bb2 e0bc
00000230: a530 e5bd 4041 243d e6c7 3d3e 1075 08be
00000240: 730e 47bb 318a a23d d502 56be 7bf7 a6ba
00000250: df49 273e fc47 0bbd a5ac 4b3e 6618 9eb2
00000260: 59c4 85ba 3c0b f83d ae47 9dbc 1de7 53bd
00000270: ef84 233e edd3 33bd a561 c0bd f9ed 91bc
00000280: b872 28bd 2f1c 28be 2282 523d 0285 0ebe
00000290: 2aef ee3d c374 60bd ee67 49be 30ce 4c3d
000002a0: 92bd 213e 9265 5c3d c02d 1ebe 6660 11a7
000002b0: ed2e 88ba 6c89 0000 b177 02be 0304 963b
000002c0: 3bdb ab3c e90b 22be cc0c d23d 1b71 d73b
000002d0: 78e2 fd3d 3ee7 e43d 48ef 67af a78d 183c
000002e0: 7d47 e4bd 16cb a7ba d67e 57bd b16e 12be
000002f0: 2cb8 da3d 2eda 48bc ca07 ef3a 4a12 293e
00000300: 0f72 76bd 7ecb 39be bf67 5d3d ed4b 33be
00000310: ff78 ddbd 0a54 41be a77f 623d e850 43be
00000320: 1790 1c3e 42b7 663e 0399 133e 4315 e83d
00000330: 6230 c4bd 5a4e 47be e680 b9bd 0988 35be
00000340: 17f8 63bc 884b da3d 8adc 593d 4adb d73a
00000350: 4807 07be 797f 46be 531c 9e3c 4e1c 8319
00000360: a0e0 393e 25d3 063e 6601 00bc c1cc 0a3e
00000370: 995a 7b3e 511a c23d 344b 273e df3e a5bd
00000380: cba8 48be 29c6 ce3d 9ee2 02be f6a3 86bd
00000390: 28a4 2dbe c4c9 d63a ea47 d43d 01ca 553d
000003a0: 6716 22be a3db 6bbd 2851 a1bd 2b8a 0000
000003b0: 9c50 b7b9 6889 0080 d827 f2bc 2341 363b
000003c0: caf0 36bd d1f8 973d 063c 02be 6a70 a03c
000003d0: b1f2 1abe 903d 93bd a7c5 641e 94e2 3dbb
000003e0: de8e 703e 480c 923c 813c 79bd aac1 f4bd
000003f0: d0a5 05bd 5c6b abbc a68c ff3c 1054 083e

NAM_features.feature_nns.0.feature_nns.hidden_layers.1.bias f4 [64]
-0.3341228 -0.03362251 -0.2550632 0.07381697 -0.34341106 0.090198316 0.2386124 0.7402665
0.3863701 -0.14094894 -0.6256957 0.47025228 0.6964078 0.040677793 0.55223835 0.5119458
-0.043439914 -0.19249803 -0.48500013 0.2692063 0.3557017 -0.5421369 -0.174136 -0.056700457
-0.12596226 -0.43358773 -0.54583305 -0.06551059 -0.3724518 0.43671048 0.28310135 0.32684466
-0.61465335 0.6638875 -0.32603055 -0.0846225 0.74433064 -0.7243834 -0.4575235 0.29654852
-0.54167557 -0.23190494 -0.20870923 -0.0011404239 0.3656831 -0.26111093 0.35412326 0.015724123
0.7644267 -0.5791846 0.08505964 0.44587073 -0.37025493 -0.20704155 0.80070984 0.114780195
-0.22897162 0.83358824 0.5908992 0.2771703 -0.39236176 0.13709505 0.94660294 -0.13172504
00000000: 2512 abbe c2b7 09bd a597 82be 5a2d 973d
00000010: 93d3 afbe e5b9 b83d cf56 743e 1b82 3d3f
00000020: 4dd2 c53e eb54 10be 982d 20bf e8c4 f03e
00000030: c847 323f c29d 263d 7e5f 0d3f e10e 033f
00000040: 0dee 31bd 341e 45be f051 f8be 68d5 893e
00000050: 891e b63e 7cc9 0abf b550 32be bd3e 68bd
00000060: 40fc 00be 36ff ddbe b7bb 0bbf 6b2a 86bd
00000070: 01b2 bebe 8498 df3e a9f2 903e 2f58 a73e
00000080: ec59 1dbf 88f4 293f 7aed a6be 904e adbd
00000090: 748c 3e3f 3171 39bf 8540 eabe 35d5 973e
000000a0: 40ab 0abf 7d78 6dbe dfb7 55be 477a 95ba
000000b0: d13a bb3e 55b0 85be a54f b53e e0cf 803c
000000c0: 78b1 433f 7145 14bf c033 ae3d 2b49 e43e
000000d0: 0e92 bdbe b302 54be 52fb 4c3f e111 eb3d
000000e0: 8977 6abe 0a66 553f 2c45 173f 44e9 8d3e
000000f0: a4e3 c8be a562 0c3e 9254 723f eee2 06be

NAM_features.feature_nns.0.feature_nns.hidden_layers.2.weight f4 [64, 32]
-0.14378539 0.1877491 -0.102055475 0.027029525 -0.20063904 -0.035896353 -0.22129601 0.050877653
-0.17483556 0.023046833 -0.12371229 0.1942622 0.09969456 -9.8170856e-30 -0.0767771 -0.041248314
-0.1163879 -0.23758277 0.15780379 0.1060233 0.0036724587 0.0760656 -0.16976303 -0.08035522
0.18995984 0.19874784 -0.20607376 0.0018436756 -0.26002702 0.1382554 0.14873642 0.14796992
0.046462655 0.038420197 -0.0008068575 -0.0002452233 0.19523849 -0.057148483 0.027534854 0.23277716
-0.13083282 0.06748975 0.16814612 0.14650227 -0.1476172 4.9492e-41 -0.22827798 -0.09573474
-0.02285254 -0.167119 0.04809263 0.20536318 -0.008710999 -0.1400299 0.22017653 0.0413318
-0.2669268 -0.10815442 -0.13834353 -0.14657937 0.107578844 -0.15508825 -0.13923514 -0.039033454
0.008128459 -0.06346306 0.1017102 0.027233997 0.0022668396 -0.05759094 0.1431537 0.21133018
-0.111236386 0.16690394 0.0001083215 0.21476044 0.0838378 -4.916e-41 -0.06959457 -0.12121791
-0.053809024 0.15490343 0.023729568 0.097740225 0.14874105 -0.12328254 0.013814981 0.056345697
0.04319643 -0.23700573 -0.016731203 0.11546771 -0.029830543 -0.07435729 0.17754959 -0.15051146
-0.11700614 0.22938187 -0.08829642 0.04560914 -0.20943631 0.074293695 -0.20915893 -0.1000994
0.26110536 -0.09857836 -0.04927276 -0.13119261 0.24670024 -4.9282e-41 0.12259777 0.11803249
-0.1291604 0.062609755 0.12772848 0.08761958 0.1917665 -0.1791341 -0.11163233 -0.17020525
0.12722 -0.0825151 -0.1321008 0.073509075 -0.18123183 0.017038777 -0.21005704 -0.26039737
0.06695316 -0.035542727 -0.17040083 0.025265718 -0.092331365 -0.077272646 0.054407366 -0.07023988
0.21793997 -0.15929136 -0.14858593 -0.002554 0.23956157 -2.2771066e-29 -0.21737392 -0.17655246
-0.21105687 0.093775325 -0.041079514 -0.058880456 -0.06692813 -0.15687 -0.1169521 0.21906853
0.099888556 -0.20509537 0.08287442 0.11711793 0.12777677 0.002018807 0.06180268 0.20366561
-0.031137288 0.18851493 0.22081019 0.0061001177 0.13971198 -0.19647712 -0.11760057 0.15382811
-0.055879813 -0.02329324 0.06639079 0.22082864 0.07203161 -2.353142e-39 0.077448316 0.086653166
0.23393871 -0.08279761 0.14086768 0.072650336 0.16333449 0.18739653 -0.031824637 0.09107976
0.19934647 -0.062179048 -0.23104404 0.20548148 0.09349218 0.06940442 0.12658799 0.2184364
-0.014509335 0.13235424 -0.19057295 0.045378055 -0.1587459 -0.1895217 0.16933008 0.02266662
0.16907848 0.13132578 -0.004222465 0.2075346 0.22496194 -2.8106766e-32 -0.09142081 0.10742238
0.058062796 0.16519623 -0.20686896 0.21130958 0.22888167 -0.22211288 -0.14511071 -0.07246865
0.09199017 0.16196136 -0.06873122 0.039420582 -0.031595282 0.19354624 -0.10708588 -0.012091691
0.07659927 -0.04700306 -0.1961538 0.004843403 -0.064043574 -0.2592162 0.16646214 0.03695463
0.057246488 -0.09399157 -0.08643811 0.11402993 -0.20941773 4.925e-41 0.07695614 -0.22463174
-0.09789582 -0.12303564 0.18312535 0.011634224 0.07062352 -0.13656944 0.127325 0.08750051
0.015118042 0.2528993 0.23109826 -0.04920853 -0.2208374 0.005007932 -0.027435534 -0.0306103
00000000: 7a3c 13be 4d41 403e 7602 d1bd 066d dd3c
00000010: 5274 4dbe 0e08 13bd 6c9b 62be 1665 503d
00000020: 1808 33be b6cc bc3c de5c fdbd acec 463e
00000030: a92c cc3d 391d 478f 503d 9dbd fef3 28bd
00000040: c85c eebd e648 73be 5197 213e be22 d93d
00000050: a2ad 703b 48c8 9b3d 5cd6 2dbe 4791 a4bd
00000060: d584 423e 8e84 4b3e 0005 53be 7da7 f13a
00000070: 4322 85be d392 0d3e 5c4e 183e 6d85 173e
00000080: a04f 3e3d 7f5e 1d3d 4a83 53ba 5091 80b9
00000090: 99ec 473e 8714 6abd c690 e13c 235d 6e3e
000000a0: 0af9 05be 1138 8a3d 7f2e 2c3e b104 163e
000000b0: f728 17be f789 0000 b4c1 69be 9310 c4bd
000000c0: 4035 bbbc 3e21 2bbe c7fc 443d ba4a 523e
000000d0: 94b8 0ebc 0064 0fbe f575 613e 894b 293d
000000e0: a1aa 88be 1180 ddbd eda9 0dbe e718 16be
000000f0: 4c52 dc3d 74cf 1ebe a893 0ebe 8be1 1fbd
00000100: 3a2d 053c ecf8 81bd 704d d03d d519 df3c
00000110: 428f 143b 7ae4 6bbd e296 123e f066 583e
00000120: e7cf e3bd dee8 2a3e aa2a e338 29ea 5b3e
00000130: 27b3 ab3d 0a89 0080 9987 8ebd 1841 f8bd
00000140: da66 5cbd 019f 1e3e 8364 c23c 072c c83d
00000150: 934f 183e 8e7b fcbd 3b58 623c bfca 663d
00000160: bdee 303d a1b1 72be e00f 89bc 567a ec3d
00000170: 2f5f f4bc a348 98bd 8fcf 353e ad1f 1abe
00000180: eaa0 efbd 15e3 6a3e c1d4 b4bd a6d0 3a3d
00000190: 7976 56be 4b27 983d c22d 56be ea00 cdbd
000001a0: 9aaf 853e 74e3 c9bd 3cd2 49bd 5b57 06be
000001b0: fd9e 7c3e 6189 0080 8a14 fb3d 05bb f13d
000001c0: a042 04be 8b39 803d 41cb 023e e571 b33d
000001d0: 705e 443e ee6e 37be 7e9f e4bd 494a 2ebe
000001e0: f645 023e adfd a8bd 6f45 07be ed8b 963d
000001f0: d694 39be e894 8b3c 3119 57be ce52 85be
00000200: bd1e 893d 4095 11bd 8e7d 2ebe 0dfa ce3c
00000210: 3a18 bdbd 1f41 9ebd 42da 5e3d edd9 8fbd
00000220: a82b 5f3e 461d 23be e926 18be 0261 27bb
00000230: a14f 753e 11ed e68f 4597 5ebe 2bca 34be
00000240: 4b1f 58be 470d c03d fe42 28bd a22c 71bd
00000250: 9e11 89bd 87a2 20be 9584 efbd 8053 603e
00000260: 5f92 cc3d 8504 52be 10ba a93d 86db ef3d
00000270: ead7 023e f64d 043b cf24 7d3d b88d 503e
00000280: a013 ffbc 0f0a 413e 111c 623e 7fe3 c73b
00000290: a810 0f3e 4c31 49be 91d8 f0bd 1e85 1d3e
000002a0: 3be2 64bd 77d1 bebc e5f7 873d e720 623e
000002b0: 4f85 933d 9a9f 1980 399d 9e3d 3777 b13d
000002c0: a18d 6f3e cb91 a9bd 9e3f 103e b3c9 943d
000002d0: 2841 273e e0e4 3f3e 8d5a 02bd 0688 ba3d
000002e0: 7b21 4c3e 75af 7ebd cf96 6cbe bd69 523e
000002f0: d478 bf3d e823 8e3d 48a0 013e cbad 5f3e
00000300: 90b8 6dbc df87 073e 8e25 43be 57de 393d
00000310: 498e 22be fa11 42be dd64 2d3e 59af b93c
00000320: e922 2d3e 447a 063e 9b5c 8abb f383 543e
00000330: 6c5c 663e 4df0 118b d53a bbbd 4400 dc3d
00000340: 41d3 6d3d 3329 293e 75d5 53be 8a61 583e
00000350: f55f 6a3e 8f71 63be e797 14be 726a 94bd
00000360: 5865 bc3d 33d9 253e f4c2 8cbd 7a77 213d
00000370: 0e6a 01bd fc30 463e d84f dbbd 3a1c 46bc
00000380: 14e0 9c3d 4886 40bd 8bdc 48be 69b5 9e3b
00000390: 4729 83bd fcb7 84be 0d75 2a3e bd5d 173d
000003a0: 4b7b 6a3d a77e c0bd 7706 b1bd 8688 e93d
000003b0: 9a71 56be 4a89 0000 2e9b 9d3d dd05 66be
000003c0: 9b7d c8bd 1cfa fbbd 3685 3b3e 799d 3e3c
000003d0: 10a3 903d dcd8 0bbe 7c61 023e 7833 b33d
000003e0: aab1 773c 047c 813e 06a5 6c3e e28e 49bd
000003f0: 3323 62be 9419 a43b 7cc0 e0bc 74c2 fabc

NAM_features.feature_nns.0.feature_nns.hidden_layers.2.bias f4 [64]
-0.41725674 -0.28485915 -0.2596339 -0.36893362 -0.72666484 0.14488938 0.09116139 0.20788541
0.3515982 0.81133354 0.22455126 0.23964544 -0.40359885 -0.43734777 -0.48501033 -0.20462707
0.245487 0.30092284 0.50769 -0.07836283 -0.183861 0.015433701 -0.7597026 -0.2888551
0.2163383 0.13339204 0.615344 0.08570175 0.8177041 0.051893402 0.34588933 0.41042054
-0.67116857 -0.7464249 -0.5561407 0.26938164 0.6999116 -0.3191298 0.3447936 0.032914482
-0.40362516 0.5713308 0.49577513 0.07832485 -0.6003724 -0.20628384 0.30862194 -0.5620954
-0.3992338 -0.10489674 0.19693364 -0.27086824 -0.16004659 0.2427949 0.5398749 -0.40245828
-0.08230291 -0.21991149 0.66128355 0.5014767 0.26174387 0.13301976 0.38745466 0.14908418
00000000: ada2 d5be 0fd9 91be bcee 84be dee4 bcbe
00000010: b506 3abf e25d 143e d3b2 ba3d eadf 543e
00000020: ae04 b43e 8eb3 4f3f c4f0 653e 9d65 753e
00000030: 82a4 cebe 0cec dfbe 4653 f8be c289 51be
00000040: f260 7b3e 8f12 9a3e f9f7 013f b17c a0bd
00000050: 0f46 3cbe a2dd 7c3c df7b 42bf d1e4 93be
00000060: ca87 5d3e ec97 083e 2f87 1d3f 6684 af3d
00000070: 0e55 513f 2d8e 543d 6818 b13e a422 d23e
00000080: b4d1 2bbf b415 3fbf 3d5f 0ebf 64ec 893e
00000090: 682d 333f fb64 a3be c988 b03e 56d1 063d
000000a0: f5a7 cebe bc42 123f 3dd6 fd3e c768 a03d
000000b0: 01b2 19bf 123c 53be b203 9e3e 7ce5 0fbf
000000c0: 5f68 ccbe 1ad4 d6bd f9a8 493e 3eaf 8abe
000000d0: 41e3 23be 3a9f 783e 3e35 0a3f 030f cebe
000000e0: 6e8e a8bd 7a30 61be e149 293f c760 003f
000000f0: 4b03 863e 5536 083e 7560 c63e 86a9 183e

NAM_features.feature_nns.0.feature_nns.output_layer.weight f4 [1, 32]
-0.11225618 0.04633117 -0.14583582 0.06624386 -0.4498923 -0.07873174 0.41098365 0.27290666
0.23687848 0.23299924 0.11364238 0.2028951 0.073144466 2.0095003e-10 -0.14801581 -0.18673849
-0.23217991 0.12389347 0.25225663 0.32373568 0.1389845 -0.25057846 -0.16549821 -0.31845054
0.13327697 0.067526795 0.2249427 -0.25765076 -0.40124062 0.32261512 0.33261374 -0.16623858
00000000: 91e6 e5bd c1c5 3d3d fc55 15be dcaa 873d
00000010: 4958 e6be 1b3e a1bd 736c d23e 6cba 8b3e
00000020: 4690 723e 5a97 6e3e 56bd e83d bcc3 4f3e
00000030: c4cc 953d 68f2 5c2f 7591 17be 6038 3fbe
00000040: 92c0 6dbe dcbb fd3d c827 813e afc0 a53e
00000050: f451 0e3e d24b 80be 5d78 29be f30b a3be
00000060: c279 083e 7d4b 8a3d 6157 663e cdea 83be
00000070: 696f cdbe cf2d a53e 594c aa3e 723a 2abe

NAM_features.feature_nns.0.output_layer.weight f4 [4, 1]
-0.8505895 0.52408636 0.10397483 -0.42446664
00000000: 3cc0 59bf 862a 063f c1f0 d43d b153 d9be

NAM_features.feature_nns.1.feature_nns.hidden_layers.0.weight f4 [1, 64]
0.33650085 0.12571488 -0.2334975 -0.22448131 -0.33639547 -0.3939101 -0.6028757 0.37323388
0.1591029 0.3462655 -0.17261079 0.19395027 -0.13953355 0.30137008 0.24617761 0.15049562
0.25927648 -0.07155397 0.23659365 -0.000229469 -0.0010421559 0.23638903 0.18630065 -0.5525774
0.11834037 0.3494088 0.29745805 -0.38632184 0.13190271 -0.5760304 0.17673707 0.15547644
-0.008433403 0.32364196 -0.4397031 0.19162555 -0.55669534 0.2706972 -0.40541717 -0.45777735
-0.2861475 0.28209734 -0.33838663 0.12783703 -0.43476006 0.15502226 -0.45324263 0.11272933
0.30256632 -0.1881596 0.18193695 -0.064051755 0.19452234 0.28026763 -0.32465518 0.32251516
0.35308906 0.18884404 0.29622746 0.24445422 0.32321954 0.28392974 0.28490144 0.19329944
00000000: d749 ac3e 67bb 003e f819 6fbe 6ede 65be
00000010: 073c acbe 96ae c9be 1056 1abf 8318 bf3e
00000020: dfeb 223e b649 b13e e2c0 30be e69a 463e
00000030: e2e1 0ebe 2e4d 9a3e fc15 7c3e 861b 1a3e
00000040: e3bf 843e e38a 92bd 9b45 723e 9e9d 70b9
00000050: f398 88ba f70f 723e 99c5 3e3e b675 0dbf
00000060: 705c f23d b6e5 b23e 6c4c 983e facb c5be
00000070: 8111 073e ba76 13bf 90fa 343e 3735 1f3e
00000080: 422c 0abc 66b4 a53e c420 e1be 7d39 443e
00000090: 9683 0ebf d398 8a3e d792 cfbe cb61 eabe
000000a0: ed81 92be 106f 903e 0341 adbe b6e7 023e
000000b0: df98 debe 28be 1e3e 6b0f e8be a3de e63d
000000c0: f9e9 9a3e e9ac 40be ae4d 3a3e 912d 83bd
000000d0: dd30 473e 3d7f 8f3e 3439 a6be b520 a53e
000000e0: 17c8 b43e 5560 413e 20ab 973e 3552 7a3e
000000f0: 087d a53e 3d5f 913e 9ade 913e 4af0 453e

NAM_features.feature_nns.1.feature_nns.hidden_layers.1.weight f4 [64, 64]
-0.036628082 0.13134655 0.10246419 0.23876412 0.059230473 -0.017213063 -0.015117484 0.11060305
-0.12155195 -0.113338225 0.22645603 0.05939346 -0.1278412 0.09551861 0.012024809 -0.022567838
-0.34594327 0.2107414 0.2262511 0.0053091007 -7.5572193e-06 -0.0029025637 -0.19050093 -0.037438456
0.10934717 -0.01891603 -0.050716255 -0.0017277733 -0.045759816 -0.0035646919 0.23375641 -0.018749615
0.08788745 -0.16281456 -0.13873738 -0.109295115 -0.115319364 0.20026107 -0.09969374 -0.084874235
-0.05831112 -0.060193542 -0.0017265365 0.0055094245 0.0024978884 -0.04354394 0.054427736 0.2265453
-3.44814e-15 -0.059058383 -0.18153405 -0.061911114 0.01515093 -0.08374098 -0.18073966 0.0026936184
-0.088956214 0.12511529 0.1435345 -0.26558912 -0.1281491 0.034160666 0.30128017 0.09397353
-0.08191037 0.29475373 0.14266296 -0.017648209 0.0054631294 -0.29505366 -0.00015458609 0.12614478
-0.1425769 0.07875786 -0.016209494 0.0675392 0.041368112 0.01388492 0.2873962 0.15904054
-0.31603345 0.1506565 0.056616742 0.3079252 -1.7934798e-07 -0.0008138865 -0.042843472 0.0028984135
0.031424314 -0.0030435936 -0.20156601 -0.0013056432 -0.38294294 0.09619887 0.31160256 -0.14306666
0.1939063 0.16497198 0.09199307 0.14776649 -0.08945868 0.0097052725 -0.041014105 -0.023498945
0.1485883 -0.08306985 -0.110605076 -0.0026323323 -0.0042446554 0.22153026 -0.00052792084 0.16020276
-4.9193e-41 -0.001181391 0.07727669 -0.014712309 0.011228912 0.041883875 0.060274657 -0.0026399705
0.0032813908 0.22263092 0.34928915 -0.13293554 0.10821483 0.14165266 0.19379106 0.06030691
-0.016899556 -0.0026581115 -0.047874015 -0.049679965 -0.068085246 -0.057223693 -0.0010300238 -0.14662059
-0.09951099 -0.052942242 0.17835666 -0.22871421 -0.01695442 0.11380707 0.0024654774 0.1463653
-0.05591555 0.06335217 -0.13103102 -0.24572548 -8.594101e-08 -0.00027448818 -0.116189696 0.11618751
-0.18091927 -0.00083046086 -0.058963604 -0.00041832353 -0.06914438 0.08122953 0.067842446 0.15126814
-0.19225375 -0.058471195 -0.14254922 0.098120674 0.03705004 -0.17052794 0.04434222 -0.06674089
0.009679803 0.041150253 0.110801175 -0.004747558 -5.4256143e-05 0.017207455 -0.00022910378 -0.22697558
4.9485e-41 1.1255889e-05 -0.027491307 -0.14062448 -0.0001788827 -0.03236374 0.08932958 -0.002597261
0.0071509 -0.14882348 -0.054354236 0.052895322 -0.19367027 -0.123199224 -0.10761338 0.07229491
-0.16910067 -0.23174073 -0.05652617 -0.036662575 0.07693891 -0.1610045 -0.04176019 -0.20921591
0.120476805 0.16760516 -0.03388184 -0.13405569 0.11116581 0.13849333 -0.213403 -0.2085444
-0.13716364 0.06373104 -0.07140377 0.16037793 -0.00057565904 -0.0012379418 0.06265177 -0.24703763
0.10654518 -0.035911694 0.0025663944 -0.0018141889 -0.18899773 0.09226933 0.07483489 0.2053184
-0.2223173 -0.19037658 0.17445937 -0.18593958 0.24412996 -0.085229374 0.14718412 -0.03773633
-0.1331193 0.014183117 0.090835154 -0.004084766 -0.002853163 -0.18770376 0.0309222 -0.12417672
1.9778703e-19 0.011480821 0.030586414 0.056599304 0.021343846 -7.1222996e-05 0.053690556 -0.002678463
-0.083579585 -0.060198527 0.07617363 0.017088907 0.12593855 0.08115159 0.13722058 -0.06638941
00000000: 5407 16bd b67f 063e bfd8 d13d 957e 743e
00000010: a79b 723d 6902 8dbc 53af 77bc da83 e23d
00000020: 3bf0 f8bd df1d e8bd 17e4 673e 8f46 733d
00000030: cee8 02be 439f c33d b403 453c 30e0 b8bc
00000040: 7a1f b1be 98cc 573e 5eae 673e f7f7 ad3b
00000050: 0594 fdb6 f038 3ebb ad12 43be 1159 19bd
00000060: 69f1 df3d caf5 9abc d9bb 4fbd 7476 e2ba
00000070: a56e 3bbd 9b9d 69bb d75d 6f3e cb98 99bc
00000080: 56fe b33d dcb8 26be 2c11 0ebe 1ed6 dfbd
00000090: 8f2c ecbd 3d11 4d3e 3b2c ccbd 8bd2 adbd
000000a0: a4d7 6ebd 818d 76bd f44c e2ba 6788 b43b
000000b0: 9db3 233b 215b 32bd 9eef 5e3d 7efb 673e
000000c0: f576 78a7 34e7 71bd 10e4 39be 8296 7dbd
000000d0: 9b3b 783c 6480 abbd d113 39be 6b87 303b
000000e0: ad2e b6bd 391e 003e b5fa 123e 4cfb 87be
000000f0: 8539 03be 0eec 0b3d 6541 9a3e 3275 c03d
00000100: a0c0 a7bd f6e9 963e 3d16 123e fa92 90bc
00000110: 0d04 b33b 4611 97be 6318 22b9 192c 013e
00000120: aeff 11be cd4b a13d c6c9 84bc fe51 8a3d
00000130: 9c71 293d 937d 633c 9825 933e 86db 223e
00000140: 23cf a1be b345 1a3e f5e6 673d 5fa8 9d3e
00000150: cc92 40b4 005b 55ba a37c 2fbd 4ff3 3d3b
00000160: c8b6 003d 0777 47bb 5267 4ebe 1e22 abba
00000170: 1911 c4be ea03 c53d 5f8a 9f3e 1180 12be
00000180: 608f 463e 6aee 283e dd66 bc3d 1950 173e
00000190: 1d36 b7bd dd02 1f3c 68fe 27bd dc80 c0bc
000001a0: 8827 183e 8720 aabd ea84 e2bd 3583 2cbb
000001b0: c016 8bbb d4d8 623e 2b64 0aba 310c 243e
000001c0: 2189 0080 e7d8 9aba 3e43 9e3d e60b 71bc
000001d0: 78f9 373c 6d8e 2b3d 8fe2 763d 5b03 2dbb
000001e0: 9a0c 573b 5cf9 633e 07d6 b23e 4120 08be
000001f0: bd9f dd3d 650d 113e 2a71 463e 6104 773d
00000200: f070 8abc b633 2ebb 8b17 44bd 387d 4bbd
00000210: 4770 8bbd 6463 6abd dd01 87ba b523 16be
00000220: 6bcc cbbd f7d9 58bd 21a3 363e 0f34 6abe
00000230: ffe3 8abc ae13 e93d d993 213b c9e0 153e
00000240: b407 65bd c8be 813d ff2c 06be 769f 7bbe
00000250: 928e b8b3 2ee9 8fb9 ddf4 edbd b8f3 ed3d
00000260: e742 39be 49b3 59ba d283 71bd 6f52 dbb9
00000270: 929b 8dbd ab5b a63d fbf0 8a3d 09e6 1a3e
00000280: 2bde 44be 7e7f 6fbd 6cf8 11be 7ef3 c83d
00000290: c8c1 173d e09e 2ebe 30a0 353d 73af 88bd
000002a0: 0998 1e3c 2b8d 283d baeb e23d 6791 9bbb
000002b0: 1791 63b8 a6f6 8c3c 943b 70b9 496c 68be
000002c0: f289 0000 add7 3c37 7335 e1bc ddff 0fbe
000002d0: 7692 3bb9 d78f 04bd 6df2 b63d cf36 2abb
000002e0: 1952 ea3b 2f65 18be 8ca2 5ebd c4a8 583d
000002f0: 8051 46be e04f fcbd 6764 dcbd 5b0f 943d
00000300: ba28 2dbe 714d 6dbe fc87 67bd 7f2b 16bd
00000310: 2692 9d3d 5dde 24be bc0c 2bbd b23c 56be
00000320: 8bbc f63d b0a0 2b3e afc7 0abd e545 09be
00000330: e6aa e33d 32d1 0d3e 5186 5abe aa8c 55be
00000340: a074 0cbe 6b85 823d 243c 92bd 1d3a 243e
00000350: d3e7 16ba 6f42 a2ba 924f 803d 6ff7 7cbe
00000360: 5c34 da3d 2418 13bd f430 283b 14ca edba
00000370: 9f88 41be b4f7 bc3d 0943 993d fd3e 523e
00000380: 25a7 63be 14f2 42be 7aa5 323e f266 3ebe
00000390: 34fd 793e bd8c aebd 6fb7 163e 6991 1abd
000003a0: 6d50 08be 4e60 683c c807 ba3d 80d9 85bb
000003b0: 22fc 3abb 6a35 40be 8e50 fd3c 5d50 febd
000003c0: 7681 6920 0e1a 3c3c 5c90 fa3c acd4 673d
000003d0: 4ad9 ae3c 8e5d 95b8 a1ea 5b3d 2789 2fbb
000003e0: c62b abbd bb92 76bd ec00 9c3d 09fe 8b3c
000003f0: 09f6 003e ce32 a63d 8d83 0c3e 2cf7 87bd

NAM_features.feature_nns.1.feature_nns.hidden_layers.1.bias f4 [64]
0.2799108 0.053927787 -0.06748865 -0.39365742 -0.68501705 -0.7201192 -0.08842733 -0.4535249
0.59598047 -0.19071947 -0.5450636 0.5245443 0.89882004 -0.2720497 -0.20186424 0.21404752
0.10511065 -0.41574204 0.27709436 -0.24203713 -0.3933326 0.04954881 0.60757935 -0.050849978
0.15668413 -0.6081333 0.12030282 -0.26049176 0.35846633 -0.33380574 0.42939916 0.6307394
-0.7602366 0.43687913 -0.7720699 0.4061434 -0.7022718 -0.09808708 -0.49309644 -0.96998537
-0.1405838 -0.609328 -0.39871246 0.17507076 -0.4266425 0.4569309 -0.16337794 0.15857159
0.5324433 -0.2647369 -0.32834926 -0.32441866 -0.22541508 -0.18514726 -0.5221876 0.047843363
-0.26125172 -0.029482014 -0.20172942 -0.35765797 0.25169405 -0.09172571 0.3044549 -0.18191256
00000000: 7850 8f3e 62e3 5c3d 7d37 8abd 778d c9be
00000010: 475d 2fbf bb59 38bf 6319 b5bd 6a34 e8be
00000020: 2d92 183f f74b 43be 4a89 0bbf 8948 063f
00000030: 1219 663f 194a 8bbe 80b5 4ebe 462f 5b3e
00000040: 4144 d73d 24dc d4be 50df 8d3e 95d8 77be
00000050: e462 c9be b1f3 4a3d 528a 1b3f 1148 50bd
00000060: ce71 203e a0ae 1bbf 5361 f63d 2d5f 85be
00000070: e688 b73e 96e8 aabe 35da db3e 2378 213f
00000080: de9e 42bf 9fae df3e 5fa6 45bf 07f2 cf3e
00000090: 16c8 33bf e1e1 c8bd 2377 fcbe f650 78bf
000000a0: 33f5 0fbe ebfc 1bbf 0a24 ccbe c045 333e
000000b0: e370 dabe d9f2 e93e 8c4c 27be 9760 223e
000000c0: 344e 083f 988b 87be 651d a8be 341a a6be
000000d0: 36d3 66be 3e97 3dbe 16ae 05bf 67f7 433d
000000e0: c9c2 85be 4484 f1bc 2892 4ebe f21e b7be
000000f0: 0bde 803e b0da bbbd 83e1 9b3e 4947 3abe

NAM_features.feature_nns.1.feature_nns.hidden_layers.2.weight f4 [64, 32]
-0.08087449 0.3024381 0.27180785 0.09239684 -0.07437803 -0.02726716 -0.15204881 -0.094080746
-0.15888707 0.0026217413 -0.0037339134 -0.11998165 0.24027127 -0.12968427 -0.16876705 0.18213302
-0.00040411422 0.048828613 0.03119414 -0.033248853 -0.20840377 -0.052996192 -0.012893772 -0.17656317
0.02856134 -0.14742371 0.21213643 -0.036336713 -0.17099474 -0.06103587 0.10777561 -0.20006923
-0.042361204 -0.063852206 0.08905399 -0.21716043 0.082227856 -0.13038193 -0.03420661 0.12545605
0.08345451 -0.27429858 -0.027559007 -0.07679567 -0.007820444 0.27109087 0.17193247 -0.0443351
-0.0018020176 0.20511764 0.05745482 0.15746449 0.06473572 0.16613995 -0.0940428 -0.12768841
0.08040282 -0.27827996 -0.27416947 0.24255843 -0.080697805 0.16949953 0.19896336 0.33372673
0.13069421 0.015010271 -0.30362368 -0.19193698 -0.19340771 0.022545315 0.04510192 -0.12999846
0.13765645 -0.13915223 0.2581 -0.08253511 0.024567207 0.19454952 -0.124034196 -0.062475458
0.14100984 -0.021814877 -0.13980207 -0.006972455 -0.072864555 0.16897346 -0.07046987 -0.19440602
-0.13114332 0.15118232 -0.24032743 -0.102794096 0.05952846 -0.033851195 -0.008880368 0.11114212
0.2628329 -0.023497222 -0.27662313 -0.1596971 -0.046528254 -0.14851232 0.017741872 0.0938213
-0.23876387 -0.09530435 0.26614538 0.18055639 -0.19507052 -0.0115469815 0.30698854 0.13983849
0.4070016 -0.15736297 -0.07996416 0.22136271 -0.024078045 -0.13631888 0.11675097 0.011583046
-0.02732696 0.06640578 0.09872932 0.11540758 -0.084579125 0.06454215 0.024387691 0.09672033
0.2479321 -0.15653303 -0.16984303 -0.10356498 0.059981525 -0.14917564 -0.04047993 -0.1361478
-0.072082706 -0.067510165 -0.058706168 0.06490399 0.14432885 -0.06752064 0.06919497 -0.21191885
-0.063481025 -0.06149727 -0.096830264 -0.08042807 -0.02515266 0.24976051 0.11651011 0.1583843
0.1035912 -0.08754692 -0.2216009 0.12582329 -0.03372145 0.051645443 -0.02965029 0.14643982
-0.025397746 -0.18794861 0.014328362 0.074091785 0.14981367 -0.007120993 -0.036956076 -0.058006592
-0.21437375 0.21882787 -0.14237943 0.080956474 -0.1789922 -0.17966628 -0.28036183 -0.1803126
-0.062431578 -0.04212377 0.10857575 0.05971259 -0.23309737 -0.1324228 -0.2179628 0.014683435
-0.06342414 0.11295392 0.20406482 -0.25997838 -0.30487746 -0.07924416 -0.21256904 0.062098987
-0.16374694 -0.062105227 0.07193545 -0.12360703 0.027642181 -0.031553663 0.0063831806 -0.1852119
0.082610235 -0.22706355 -0.19126199 -0.09877382 -0.1436648 -0.14268576 -0.21073689 0.25848335
-0.21127787 0.12354145 -0.17252061 -0.27907282 0.01735403 -0.15899362 0.1524383 -0.17302756
-0.14221309 0.21355592 0.23151734 -0.124898866 0.2076951 -0.11857939 0.17559315 -0.23640327
0.04387388 -0.095491104 -0.24540846 -0.09339983 0.024863645 0.06832404 -0.03062736 0.3025911
0.14520766 0.050056 0.080052435 -0.0060595735 0.031796165 -0.13883331 0.08736619 -0.19223237
0.2914029 0.13143486 -0.116941035 0.13195692 -0.012257227 0.29134354 0.036391158 -0.03813427
-0.041063663 -0.2411526 0.05642341 -0.085842244 -0.11386662 0.15475446 0.29009455 0.20785834
00000000: 86a1 a5bd 2bd9 9a3e 662a 8b3e 8e3a bd3d
00000010: 8253 98bd 615f dfbc afb2 1bbe 68ad c0bd
00000020: 4bb3 22be 85d1 2b3b acb4 74bb f0b8 f5bd
00000030: ac09 763e f4cb 04be 45d1 2cbe 1481 3a3e
00000040: 4bdf d3b9 8300 483d da8a ff3c f32f 08bd
00000050: cc67 55be 8912 59bd 6640 53bc facc 34be
00000060: 79f9 e93c 3ef6 16be 4b3a 593e ced5 14bd
00000070: 3f19 2fbe c000 7abd 76b9 dc3d f3de 4cbe
00000080: f182 2dbd f2c4 82bd f061 b63d 4e5f 5ebe
00000090: 1467 a83d d782 05be 3b1c 0cbd 8d77 003e
000000a0: 33ea aa3d dd70 8cbe 6dc3 e1bc 0c47 9dbd
000000b0: 5221 00bc 6ccc 8a3e 110f 303e b998 35bd
000000c0: ad31 ecba 5c0a 523e bf55 6b3d 5f3e 213e
000000d0: 2994 843d 9720 2a3e 8399 c0bd c0c0 02be
000000e0: 3caa a43d b67a 8ebe f15f 8cbe 3d61 783e
000000f0: e444 a5bd 4991 2d3e 0dbd 4b3e 3bde aa3e
00000100: b4d4 053e a4ed 753c 9074 9bbe 218b 44be
00000110: ac0c 46be f4b0 b83c cabc 383d 511e 05be
00000120: d0f5 0c3e ec7d 0ebe af25 843e 2b08 a9bd
00000130: 2b41 c93c fd37 473e a405 febd 44e6 7fbd
00000140: e264 103e 1db5 b2bc 4628 0fbe 3179 e4bb
00000150: 033a 95bd 6107 2d3e 8252 90bd 5f12 47be
00000160: 6f4a 06be 8acf 1a3e 6518 76be b685 d2bd
00000170: 1dd4 733d 8da7 0abd f77e 11bc 7b9e e33d
00000180: 0992 863e 3f7d c0bc 8ca1 8dbe a387 23be
00000190: 6994 3ebd 9d13 18be 6757 913c 6225 c03d
000001a0: 847e 74be ed2e c3bd 3544 883e c6e3 383e
000001b0: 91c0 47be 8d2f 3dbc 9a2d 9d3e d231 0f3e
000001c0: 8462 d03e c223 21be 40c4 a3bd e8ac 623e
000001d0: 523f c5bc 2d97 0bbe 221b ef3d d1c6 3d3c
000001e0: cadc dfbc c1ff 873d 9932 ca3d cf5a ec3d
000001f0: d237 adbd ad2e 843d b2c8 c73c 4f15 c63d
00000200: eae1 7d3e 324a 20be 55eb 2dbe e019 d4bd
00000210: 30af 753d 80c1 18be 48ce 25bd 546a 0bbe
00000220: 19a0 93bd c542 8abd e175 70bd 62ec 843d
00000230: f1ca 133e 4348 8abd 18b6 8d3d 4101 59be
00000240: 5702 82bd 90e4 7bbd f24e c6bd 79b7 a4bd
00000250: f40c cebc 38c1 7f3e da9c ee3d 7e2f 223e
00000260: a027 d43d cd4b b3bd 59eb 62be d2d7 003e
00000270: 811f 0abd 2c8a 533d 2ae5 f2bc 52f4 153e
00000280: ef0e d0bc 9a75 40be 82c1 6a3c 6fbd 973d
00000290: c168 193e 3857 e9bb 415f 17bd 5298 6dbd
000002a0: cb84 5bbe 6a14 603e eacb 11be 82cc a53d
000002b0: bb49 37be 70fa 37be 968b 8fbe dea3 38be
000002c0: 41b8 7fbd f989 2cbd f65c de3d 3095 743d
000002d0: 14b1 6ebe d899 07be a431 5fbe ca92 703c
000002e0: 84e4 81bd 6354 e73d 5ef6 503e e31b 85be
000002f0: e618 9cbe c34a a2bd b3ab 59be 825b 7e3d
00000300: 47ad 27be 0d62 7ebd e552 933d af25 fdbd
00000310: db71 e23c 6a3e 01bd 002a d13b 30a8 3dbe
00000320: 8e2f a93d 5983 68be 2fda 43be ee49 cabd
00000330: de1c 13be 371c 12be 69cb 57be ee57 843e
00000340: 3a59 58be 4d03 fd3d 3ea9 30be a2e2 8ebe
00000350: 0a2a 8e3c 39cf 22be c918 1c3e 232e 31be
00000360: 4fa0 11be 67ae 5a3e e212 6d3e faca ffbd
00000370: 06ae 543e c0d9 f2bd b1ce 333e b313 72be
00000380: 19b5 333d d790 c3bd 5b4c 7bbe 6948 bfbd
00000390: d8ae cb3c 79ed 8b3d 3be6 fabc 38ed 9a3e
000003a0: 51b1 143e 8507 4d3d 88f2 a33d 638f c6bb
000003b0: b23c 023d 522a 0ebe 0ced b23d 90d8 44be
000003c0: c332 953e dc96 063e c87e efbd b71f 073e
000003d0: 89d2 48bc fb2a 953e e50e 153d ae32 1cbd
000003e0: 5f32 28bd b5f0 76be 3c1c 673d 0fce afbd
000003f0: e732 e9bd f477 1e3e 4687 943e d1d8 543e

NAM_features.feature_nns.1.feature_nns.hidden_layers.2.bias f4 [64]
-0.29422894 -0.2548881 0.42210716 -0.43193832 -0.565057 -0.15325165 -0.271872 -0.5532078
0.874474 -0.597941 -0.020485062 0.022393841 0.16252407 -0.3424789 -0.078937806 -0.31661534
-0.60402703 -0.21628457 -0.04074386 0.22226758 0.1402008 -0.038231246 -0.33857188 -0.4720601
0.2669217 0.4113552 0.3539339 -0.30826712 -0.13921052 -0.086259015 0.28027317 -0.26942828
-0.040165074 -0.052077197 -0.08306081 0.14780425 0.4743021 0.12792172 -0.6184742 -0.14794849
-0.17066444 -0.398166 0.54671186 0.31475416 -0.06441675 0.5889681 -0.24155201 -0.048087563
0.43200573 -0.37032962 0.043847714 0.053994093 -0.33963698 0.62332225 0.4996145 0.30966187
-0.09173864 0.5025539 0.20920064 -0.45855847 0.35929015 0.64220107 -0.80559397 0.6530504
00000000: 2da5 96be b180 82be 6e1e d83e 0527 ddbe
00000010: 93a7 10bf 00ee 1cbe cf32 8bbe 079f 0dbf
00000020: 87dd 5f3f a912 19bf 4ad0 a7bc 4a73 b73c
00000030: b66c 263e 6559 afbe 25aa a1bd 681b a2be
00000040: 84a1 1abf b479 5dbe 09e3 26bd 1d9a 633e
00000050: cc90 0f3e 5e98 1cbd 4b59 adbe ddb1 f1be
00000060: f6a9 883e 269d d23e d336 b53e 30d5 9dbe
00000070: 348d 0ebe 91a8 b0bd f77f 8f3e 81f2 89be
00000080: 2284 24bd e64e 55bd c91b aabd ff59 173e
00000090: bad7 f23e e9fd 023e 5354 1ebf cf7f 17be
000000a0: a9c2 2ebe 6adc cbbe 4ff5 0b3f 7527 a13e
000000b0: eeec 83bd 9dc6 163f 6959 77be 77f7 44bd
000000c0: db2f dd3e d89b bdbe a999 333d e928 5d3d
000000d0: e6e4 adbe 0c92 1f3f 79cd ff3e 008c 9e3e
000000e0: 78e1 bbbd 5fa7 003f b138 563e 2dc8 eabe
000000f0: e1f4 b73e 4a67 243f 683b 4ebf 502e 273f

NAM_features.feature_nns.1.feature_nns.output_layer.weight f4 [1, 32]
0.26070002 -0.26412994 -0.17529026 -0.13785881 -0.29163304 -0.1386555 0.49383813 0.16700955
-0.08519225 -0.3545235 0.46001783 0.4595113 -0.3208409 0.46408802 0.40623215 -0.42021725
0.18360615 0.34745723 -0.16558787 0.30583563 0.19145063 0.1353046 0.3071223 -0.16420093
-0.22827007 -0.478726 -0.47604728 0.27778208 0.37615216 0.16244905 0.27121627 0.17083135
00000000: 797a 853e 0a3c 87be 4a7f 33be dc2a 0dbe
00000010: ed50 95be b5fb 0dbe 5ad8 fc3e 8d04 2b3e
00000020: 4679 aebd 1b84 b5be 7587 eb3e 1145 eb3e
00000030: 4245 a4be f29c ed3e a9fd cf3e b726 d7be
00000040: 4003 3c3e eae5 b13e de8f 29be 7d96 9c3e
00000050: a20b 443e 4a8d 0a3e 223f 9d3e 4a24 28be
00000060: a1bf 69be 931b f5be 78bc f3be 7439 8e3e
00000070: 0497 c03e 0b59 263e dcdc 8a3e 6aee 2e3e

NAM_features.feature_nns.1.output_layer.weight f4 [4, 1]
-0.4290625 0.31343108 1.3431937 -0.3003931
00000000: 14ae dbbe 0a7a a03e c5ed ab3f 20cd 99be

NAM_features.feature_nns.2.feature_nns.hidden_layers.0.weight f4 [1, 64]
0.1534454 0.16558288 0.18708777 -0.20937745 0.16667378 0.30756396 -0.055111032 -0.32206553
0.2652881 -0.15978962 -0.081480905 0.16466033 0.26451927 0.14864719 -0.1031736 0.12078932
0.22276454 -0.012055353 0.28375077 0.18861142 0.24328095 0.25560042 -0.24189037 0.1530321
0.15554848 -0.06301486 0.23134375 -0.29172996 -0.2842193 0.2846298 -0.13792203 -0.049466964
-0.028505124 -0.0866141 0.286507 0.15572113 0.29913005 -0.08310412 -0.13759476 0.26906544
-0.22378702 -0.0716138 -0.112475954 -0.3140044 0.25581846 -0.057100862 -0.017887417 0.25674257
-0.07106934 0.24269907 -0.15705813 0.20062166 -0.31985936 -0.1305172 0.18279617 0.38326257
-0.0008021897 0.34992388 -0.17557582 0.32533124 0.23117453 -0.2148071 0.24866682 0.18000254
00000000: ca20 1d3e 8f8e 293e f093 3f3e 0b67 56be
00000010: 88ac 2a3e 0679 9d3e 1bbc 61bd c6e5 a4be
00000020: d8d3 873e e49f 23be 76df a6bd b89c 283e
00000030: 126f 873e f836 183e ae4c d3bd 6460 f73d
00000040: 631c 643e d183 45bc c847 913e 5a23 413e
00000050: a41e 793e 0fde 823e 1cb2 77be 72b4 1c3e
00000060: 1a48 1f3e ef0d 81bd 60e5 6c3e a15d 95be
00000070: 3185 91be ffba 913e 6f3b 0dbe df9d 4abd
00000080: 9483 e9bc bc62 b1bd 0cb1 923e 5c75 1f3e
00000090: 9327 993e 7e32 aabd a4e5 0cbe f2c2 893e
000000a0: 6d28 65be 42aa 92bd cb59 e6bd 2fc5 a0be
000000b0: a3fa 823e 98e2 69bd a288 92bc c373 833e
000000c0: cd8c 91bd 1b86 783e d9d3 20be c46f 4d3e
000000d0: 9bc4 a3be 4da6 05be eb2e 3b3e fe3a c43e
000000e0: 0a4a 52ba 3929 b33e 26ca 33be d191 a63e
000000f0: 04b9 6c3e 64f6 5bbe 84a2 7e3e 9652 383e

NAM_features.feature_nns.2.feature_nns.hidden_layers.1.weight f4 [64, 64]
0.27744925 0.012765124 -6.2846985e-11 5.796541e-05 1.1476263e-15 -0.012136167 -0.0023708679 -0.065235
0.19073056 -0.09421673 -0.10022593 -0.033392765 0.0412141 0.04877856 0.15762323 -0.18827283
-0.16709852 -0.09946994 0.021942047 0.11532445 0.12895976 -0.21495937 0.29064393 -0.0064842524
0.30603746 0.17599232 0.3249361 0.31453532 0.022125509 -0.041072264 -0.00025335306 -0.00048678412
0.048459407 -0.08137949 -0.23811385 -0.07622561 0.0018225115 3.899327e-16 0.059698727 -0.10419116
0.0018859677 0.018035628 -0.102332465 -0.054576866 -0.00045810032 0.050311252 -0.07231989 0.23073265
-0.041330714 4.9665e-41 -0.14300661 -0.22211505 -0.009144726 -3.1199e-41 -8.008037e-06 0.13442317
0.0020477073 -0.08194845 0.18117459 0.1177439 0.10299134 0.00035369812 0.27347115 0.07183896
0.014350185 -0.20010059 4.9421e-41 -0.00091280515 4.9949557e-07 0.0034637905 0.0022183438 -0.09918958
0.100568734 -0.2155833 0.15589903 0.033848435 0.29032817 -0.015527281 0.029670963 -0.1311911
-0.04946129 -0.10701003 0.15764406 -0.15213999 -0.04421975 -0.13168502 0.17998077 0.00033400237
0.13843836 -0.030689308 0.253545 0.08240115 -0.0069843875 -0.111786686 0.011176004 0.0004257661
0.15735188 0.028465789 -0.21108577 -0.10606991 -0.0022805233 4.1542243e-27 -0.019906152 -0.08050188
-0.05953433 -0.014971633 -0.052691564 0.02742522 0.0022305495 0.08429771 0.28267056 0.25631142
0.17906652 4.9399e-41 0.08272197 -0.19845414 -0.23243871 -1.1694563e-38 -7.572634e-06 -0.092412055
0.00094000914 0.19144703 -0.06861652 0.018304126 0.25370184 -0.10859617 -0.09629079 0.026872752
0.22053167 -0.029011467 -4.5462196e-16 -0.00094496366 -1.6353765e-14 0.005971491 0.0037872982 -0.11694662
0.11711251 -0.21317488 0.0636814 0.0074735507 -0.117975436 0.077965334 0.2164356 -0.2314516
-0.15417111 0.06612362 0.1489394 -0.0342641 0.27167764 -0.09256601 0.1891673 0.0039817845
-0.13136649 0.09913405 0.035699584 -0.03817682 0.026344072 -0.08022644 -0.016642818 -0.0052095894
0.11322813 0.20463386 0.04461121 -0.010497041 0.00032707435 -1.427569e-13 0.09394679 0.11950153
0.0070756385 0.015288678 0.0031566743 0.10996441 0.0021634307 0.14418656 0.23796776 -0.09919754
0.12989853 -4.9383e-41 0.09297624 -0.09217171 -0.07904532 -1.43789e-40 -0.000110961024 0.010326947
0.001147827 0.10553898 0.0068506086 -0.18003803 -0.09841481 0.18545721 -0.08568553 -0.015021285
-0.036885086 -0.06706884 -1.8092176e-07 -0.0016035207 -8.4668875e-07 0.048733905 -0.003713328 0.21229683
0.100314036 -0.0068219276 0.12062349 0.03025202 0.013924375 0.028526407 0.15084583 0.09620956
-0.11724337 0.17943037 -0.021974979 -0.18498398 0.043775678 0.035126332 -0.113381304 -0.0015008016
0.022235278 0.010652903 -0.0016373383 0.10083638 -0.16042984 0.065034315 0.009816015 -0.0062791863
0.028469274 -0.22437732 0.19872038 -0.20646758 -0.0052283667 1.6656206e-10 0.17795515 0.18514079
-0.13414486 0.05485423 0.021415414 0.04213137 -0.0025091937 -0.122213565 -0.04673958 -0.15244877
0.0024923973 -6.2494e-41 -0.13527513 -0.091598086 0.010916918 -7.387976e-29 0.0048385127 -0.10745761
0.01152058 -0.020113692 0.076190695 -0.14868245 0.030988354 0.07365386 -0.042798143 -0.004406796
00000000: d40d 8e3e d024 513c b533 8aae e31f 7338
00000010: f063 a526 c6d6 46bc 9060 1bbb ed99 85bd
00000020: df4e 433e b3f4 c0bd 4143 cdbd dac6 08bd
00000030: 1ed0 283d 07cc 473d fc67 213e 98ca 40be
00000040: e01b 2bbe e5b6 cbbd cfbf b33c 3a2f ec3d
00000050: 070e 043e 4f1e 5cbe 48cf 943e da79 d4bb
00000060: f1b0 9c3e 5537 343e 065e a63e c60a a13e
00000070: 8e40 b53c 643b 28bd 79d4 84b9 0f37 ffb9
00000080: 5f7d 463d 4aaa a6bd 1ed4 73be 2c1c 9cbd
00000090: 57e1 ee3a e9c7 e025 a786 743d 2d62 d5bd
000000a0: 9332 f73a 74bf 933c af93 d1bd fe8b 5fbd
000000b0: 2f2d f0b9 2c13 4e3d 731c 94bd 2e45 6c3e
000000c0: 654a 29bd 728a 0000 5370 12be 2172 63be
000000d0: c3d3 15bc f856 0080 425a 06b7 3aa6 093e
000000e0: d432 063b 97d4 a7bd d585 393e b723 f13d
000000f0: 20ed d23d 8f70 b939 6904 8c3e 4e20 933d
00000100: 0a1d 6b3c 2be7 4cbe c489 0000 5149 6fba
00000110: 1315 0635 c300 633b a261 113b e823 cbbd
00000120: fbf6 cd3d dec1 5cbe ffa3 1f3e a8a4 0a3d
00000130: e5a5 943e 2366 7ebc 8510 f33c f656 06be
00000140: ec97 4abd 1328 dbbd 726d 213e 96ca 1bbe
00000150: c51f 35bd 70d8 06be e14c 383e 0a1d af39
00000160: c9c2 0d3e 2568 fbbc a6d0 813e efc1 a83d
00000170: 4add e4bb 6bf0 e4bd 8f1b 373c 5c39 df39
00000180: da20 213e 1631 e93c de26 58be 2e3b d9bd
00000190: d574 15bb d790 a413 3a12 a3bc 2bde a4bd
000001a0: 45da 73bd 954b 75bc 1cd3 57bd dbaa e03c
000001b0: 692e 123b 47a4 ac3d 32ba 903e 403b 833e
000001c0: 375d 373e b489 0000 236a a93d 9037 4bbe
000001d0: 6a04 6ebe af57 7f80 6e18 feb6 8842 bdbd
000001e0: f26a 763a b10a 443e d186 8cbd 89f2 953c
000001f0: 35e5 813e ab67 debd 1b34 c5bd 3f24 dc3c
00000200: 0ed3 613e 75a9 edbc 2e09 03a6 70b7 77ba
00000210: 374d 93a8 7fac c33b 5234 783b b681 efbd
00000220: afd8 ef3d 844a 5abe 656b 823d b0e4 f43b
00000230: 1b9d f1bd 4aac 9f3d 4ba1 5d3e a601 6dbe
00000240: 08df 1dbe d26b 873d 9283 183e 8358 0cbd
00000250: 5519 8b3e 4093 bdbd 13b5 413e a179 823b
00000260: f084 06be cb06 cb3d ba39 123d 4c5f 1cbd
00000270: 86cf d73c c34d a4bd 8556 88bc 34b5 aabb
00000280: 26e4 e73d 8a8b 513e 3eba 363d c8fb 2bbc
00000290: 2d7b ab39 e0ba 20aa 2d67 c03d 38bd f43d
000002a0: c2da e73b 5d7d 7a3c 35e0 4e3b 0535 e13d
000002b0: 58c8 0d3b a4a5 133e d2ad 733e 1428 cbbd
000002c0: 1f04 053e a989 0080 546a be3d 86c4 bcbd
000002d0: 83e2 a1bd d390 0180 bfb3 e8b8 5b32 293c
000002e0: af72 963a d224 d83d 127b e03b e45b 38be
000002f0: b48d c9bd 7fe8 3d3e e57b afbd d61b 76bc
00000300: d114 17bd 635b 89bd 6543 42b4 3a2d d2ba
00000310: 0248 63b5 349d 473d 4e5b 73bb 5764 593e
00000320: 7271 cd3d 7a8a dfbb 7309 f73d 16d3 f73c
00000330: 1023 643c 36b0 e93c 5477 1a3e 8509 c53d
00000340: 4b1d f0bd 98bc 373e df04 b4bc 716c 3dbe
00000350: 204e 333d a1e0 0f3d 7534 e8bd 8cb6 c4ba
00000360: c226 b63c 8389 2e3c f59b d6ba 4e83 ce3d
00000370: b847 24be b630 853d 5ad3 203c a2c1 cdbb
00000380: 6538 e93c 2bc3 65be 5b7d 4b3e 3d6c 53be
00000390: b852 abbb 0d23 372f e039 363e 8c95 3d3e
000003a0: 455d 09be d4ae 603d 616f af3c f291 2c3d
000003b0: 4971 24bb 1b4b fabd 0072 3fbd 881b 1cbe
000003c0: 7d57 233b 35ae 0080 9085 0abe c797 bbbd
000003d0: dfdc 323c b54e bb90 638c 9e3b bc12 dcbd
000003e0: d1c0 3c3c 78c5 a4bc de09 9c3d 3640 18be
000003f0: 4adb fd3c d6d7 963d 1b4d 2fbd e266 90bb

NAM_features.feature_nns.2.feature_nns.hidden_layers.1.bias f4 [64]
0.13257945 0.45863733 0.34971994 -0.48194602 0.94157094 0.17699713 -0.0966674 -0.1031673
-0.1326668 0.21462846 0.05550989 0.32294604 0.27443096 -0.2636792 0.12500189 0.14826046
0.50638074 -0.7548222 -0.1611045 0.082099855 0.3836114 -0.16296457 0.079672076 0.43508455
0.30852255 -0.22427984 -0.038788274 0.40407887 -0.32158586 0.6128923 -0.07860897 0.90491337
0.14339204 -0.31489575 -0.6167955 0.8054199 -0.33214244 0.4646727 -0.26131937 -0.18958849
0.12532043 0.5339955 -0.33506936 -0.17350577 0.10520739 -0.840404 -0.27393118 -0.42757684
0.2318496 1.0508902 0.2849466 -0.17238285 0.79071254 0.14304975 0.31512344 -0.37640905
-0.58307713 -0.50104296 0.31821525 -0.1134582 -0.81680554 0.6677416 -0.15223669 0.48084158
00000000: e8c2 073e 83d2 ea3e 7e0e b33e a1c1 f6be
00000010: cb0a 713f bc3e 353e 8ff9 c5bd 6149 d3bd
00000020: ced9 07be 90c7 5b3e 575e 633d 2f59 a53e
00000030: 3782 8c3e f600 87be 7f00 003e 97d1 173e
00000040: 2ba2 013f 073c 41bf 94f8 24be f823 a83d
00000050: b768 c43e 2fe0 26be 1d2b a33d 67c3 de3e
00000060: abf6 9d3e 9da9 65be 74e0 1ebd 6de3 ce3e
00000070: e7a6 a4be 83e6 1c3f bdfd a0bd 67a8 673f
00000080: 5dd5 123e 043a a1be 4fe6 1dbf 0030 4e3f
00000090: 930e aabe 95e9 ed3e a7cb 85be 7c23 42be
000000a0: 0054 003e eeb3 083f 368e abbe 7fab 31be
000000b0: f976 d73d b724 57bf b540 8cbe 5aeb dabe
000000c0: fb69 6d3e 9283 863f 85e4 913e 2185 30be
000000d0: 236c 4a3f a27b 123e dc57 a13e b0b8 c0be
000000e0: 8b44 15bf 5a44 00bf 1ced a23e c65c e8bd
000000f0: 2b1a 51bf 1df1 2a3f efe3 1bbe de30 f63e
