best_model.pt (torch, 885078 bytes, 154 tensors)

NAM_features.bias f4 [4]
-0.1048128 -0.106621034 0.085105196 0.07899524
00000000: 18a8 d6bd 215c dabd a24b ae3d 42c8 a13d

NAM_features.feature_nns.0.feature_nns.hidden_layers.0.weight f4 [1, 64]
-0.047478333 -0.28246492 0.32617676 0.097479336 0.3466757 -0.2527487 0.24766926 -0.07781244
0.24852057 0.30947942 0.32565114 -0.29543543 0.22614288 0.1394406 -0.36283112 0.28013512
-0.22949207 0.3995649 0.35360602 -0.20611325 -0.11415059 0.29251578 0.31992495 -0.083738886
-0.06616686 0.14332263 -0.12435818 -0.014733383 -0.2159994 0.092243984 -0.24868827 0.4230472
-0.086815484 0.20533435 0.35543948 -0.12568551 0.3289577 0.0041696574 0.21119049 0.1383215
-0.2725404 -0.18938026 -0.36291027 0.3995978 -0.2753118 0.36275756 -0.022613838 0.12651746
0.20567532 0.011439965 -0.10493892 0.3505219 -0.28169885 -0.40576854 -0.12458631 -0.033625066
0.0048704348 -0.41519937 0.17133147 -0.2346155 -0.1650757 0.3930974 0.43252894 -0.3003952
00000000: a478 42bd 3e9f 90be a400 a73e 3fa3 c73d
00000010: 7a7f b13e 4768 81be 039d 7d3e 215c 9fbd
00000020: 2d7c 7e3e 1674 9e3e bfbb a63e 5043 97be
00000030: 0092 673e 84c9 0e3e 00c5 b9be df6d 8f3e
00000040: f8ff 6abe c593 cc3e d90b b53e 5a0f 53be
00000050: c9c7 e9bd a1c4 953e 34cd a33e 4b7f abbd
00000060: 7e82 87bd 2bc3 123e 80af febd 4a64 71bc
00000070: f22e 5dbe 6aea bc3d 23a8 7ebe a599 d83e
00000080: 51cc b1bd 2b43 523e 2afc b53e b4b3 00be
00000090: 256d a83e 9fa1 883b 5242 583e 27a4 0d3e
000000a0: 6a8a 8bbe e6ec 41be 60cf b9be 1598 cc3e
000000b0: abf5 8cbe 5cbb b93e a840 b9bc cb8d 013e
000000c0: 8d9c 523e b16e 3b3c 37ea d6bd 9b77 b33e
000000d0: d53a 90be e5c0 cfbe 1b27 ffbd 70ba 09bd
000000e0: 2b98 9f3b 0395 d4be 8471 2f3e 0c3f 70be
000000f0: 9b09 29be 1044 c93e 6f74 dd3e 66cd 99be

NAM_features.feature_nns.0.feature_nns.hidden_layers.1.weight f4 [64, 64]
0.12626223 -0.06724401 -0.064116605 0.0005769991 -0.09665139 0.20645651 0.0006864359 -0.14291191
0.11381418 0.02581246 -0.014533356 0.17415126 -0.16758963 -0.027901487 -0.14738373 0.13372065
-0.01986393 0.13994448 0.0706247 0.030657265 -0.021838717 -0.02230697 -0.035196606 0.1595235
0.15758692 -0.101656206 0.19124928 0.021655185 -0.1382062 -0.12004775 0.17287508 -0.00011979964
0.09741063 -0.07925881 0.12121849 -0.0032745728 -0.020203197 0.0042857286 -0.027154004 -0.007025594
-0.03044146 0.020912554 0.1554533 -0.024911385 0.08320786 0.013717079 -0.06753042 -0.044153783
-0.18715864 0.036176745 -0.15877311 0.07552981 -0.16283293 0.12999913 -0.00273451 -0.12606305
0.015787112 -0.052479032 0.07357615 -0.008624608 -0.20436352 -0.033374403 -0.11721029 -0.11826129
-0.0044387053 -0.0045653284 -0.1569563 0.00020444368 -0.013219918 0.030045236 -0.1034616 0.13490988
0.016111316 0.007027496 0.03485846 -0.018508598 -0.1297419 -0.0068993513 0.22390848 0.19763453
-0.023427637 0.19412132 0.115149334 0.07700271 -0.18155834 -0.02037778 -0.032669004 0.018870784
-0.043225285 0.056598797 -0.088626005 -0.22557077 0.058617644 -0.13908744 0.16592945 -0.00028574784
-0.2391575 -0.048096143 0.29941836 -0.014247548 -0.010530535 -0.2539944 0.0003926603 0.0006468415
-0.023712391 0.14968641 0.13172181 0.042984158 -0.019372381 0.025459668 -8.78891e-05 -0.17747773
0.0870691 -0.17526747 -0.013173829 -0.042176854 0.02088265 -0.023964616 -0.01536693 0.088409744
0.029310225 0.09675678 -0.056286618 -0.19165303 0.121363 -0.029531019 0.08017354 0.12892173
0.1496455 -0.022840409 0.0045628767 -0.0020388248 -0.07598031 0.032875374 0.13195257 0.12522158
-0.028026225 -0.19711345 -0.021824574 0.15970641 -0.014649443 -0.030226098 -0.10755876 0.18240042
-0.055103537 0.18580092 0.21498294 -0.010876762 0.14274095 -0.03167963 -0.035523035 -0.011159829
0.1282956 -0.061230883 0.020081379 0.14298072 -0.1464646 0.12662637 0.2620881 0.00035571944
-0.039501805 -0.0027972774 0.010195317 -0.01411444 -0.019965915 -0.08594199 -0.049336817 -0.014812266
-0.027756583 -0.05575739 -0.16531524 -0.012622096 0.002105254 0.13821638 -0.067676365 -0.05645126
0.07227992 0.19203994 0.00023018187 -0.009255318 0.18426242 0.07563516 -0.18313326 0.124939285
0.0044145775 -0.15213303 0.021644946 0.17527017 0.21240944 -0.033614226 0.07987687 0.14742282
0.03129733 -0.024286611 -0.12373045 0.0005701207 -0.012837385 0.17706805 0.1023334 0.03899977
0.0045890473 0.028761616 -0.019480724 -0.05035054 0.07923733 -0.028437939 0.19274229 0.15855809
-0.08599941 0.12802507 -0.19701713 0.015866652 0.15001252 -0.023295566 -0.036758553 0.075863846
-0.17604753 0.10661232 0.050972953 0.1379143 -0.11872991 0.06785241 -0.054131284 0.00013509748
0.10609759 -0.02006799 0.16738586 -0.016215498 -0.020375626 -0.039749082 0.0077467402 -0.009225725
-0.026069796 0.22819188 0.04487697 -0.019701894 0.21134622 -0.071592465 -0.051957976 -0.17982778
-0.05824674 0.047354706 -0.13235141 -0.026805522 -0.044176005 -0.015854849 0.029513387 -0.07596829
-0.023444718 0.004725792 0.06638798 0.17217878 0.045290183 -0.033752132 0.014116618 0.092263274
00000000: e34a 013e 3ab7 89bd 914f 83bd c141 173a
00000010: 2af1 c5bd 5669 533e eff1 333a 8057 12be
00000020: 6917 e93d a774 d33c 501d 6ebc b554 323e
00000030: 9e9c 2bbe a991 e4bc c3eb 16be 11ee 083e
00000040: aeb9 a2bc 9b4d 0f3e afa3 903d f224 fb3c
00000050: 1ce7 b2bc 1bbd b6bc 512a 10bd 215a 233e
00000060: 775e 213e 2131 d0bd dad6 433e 3766 b13c
00000070: ed85 0dbe 98db f5bd 2a06 313e f13c fbb8
00000080: 397f c73d 7152 a2bd 6641 f83d 379a 56bb
00000090: 2d81 a5bc 4c6f 8c3b 1372 debc f436 e6bb
000000a0: 5e60 f9bc ce50 ab3c 262f 1f3e f612 ccbc
000000b0: e268 aa3d 99bd 603c 644d 8abd 99da 34bd
000000c0: 84a6 3fbe 112e 143d 6b95 22be 5faf 9a3d
000000d0: adbd 26be 7e1e 053e 7735 33bb ac16 01be
000000e0: f953 813c 41f4 56bd 18af 963d 3a4e 0dbc
000000f0: ac44 51be 99b3 08bd f30b f0bd fa32 f2bd
00000100: 8f72 91bb c098 95bb 27b9 20be ef5f 5639
00000110: 5b98 58bc 6d21 f63c ade3 d3bd d125 0a3e
00000120: e1fb 833c e946 e63b bfc7 0e3d 589f 97bc
00000130: 10db 04be f413 e2bb 4448 653e b560 4a3e
00000140: 51eb bfbc bdc7 463e 6ad3 eb3d 99b3 9d3d
00000150: 6eea 39be 4def a6bc efcf 05bd e796 9a3c
00000160: ff0c 31bd 24d4 673d 8d81 b5bd 06fc 66be
00000170: 0e19 703d f06c 0ebe 69e9 293e 6dd0 95b9
00000180: b4e5 74be 7600 45bd 5d4d 993e 8c6e 69bc
00000190: 4488 2cbc 8e0b 82be f9dd cd39 cc90 293a
000001a0: 7d40 c2bc 6547 193e 15e2 063e 2810 303d
000001b0: d4b2 9ebc cb90 d03c 1a51 b8b8 b9bc 35be
000001c0: 4951 b23d 5179 33be 0bd7 57bc a3c1 2cbd
000001d0: 1712 ab3c 7151 c4bc 93c5 7bbc 2b10 b53d
000001e0: ff1b f03c 6b28 c63d cc8c 66bd b140 44be
000001f0: 2a8d f83d 09eb f1bc 0632 a43d 0f04 043e
00000200: ac3c 193e cf1b bbbc 2f84 953b ce9d 05bb
00000210: 919b 9bbd 54a8 063d 931e 073e 163a 003e
00000220: 4197 e5bc 1cd8 49be 73c9 b2bc 148a 233e
00000230: 3804 70bc b99c f7bc c447 dcbd 2dc7 3a3e
00000240: 3fb4 61bd 9942 3e3e 7d24 5c3e 7234 32bc
00000250: af2a 123e 80c2 01bd 9a80 11bd b7d7 36bc
00000260: ec5f 033e 3ccd 7abd b481 a43c 8a69 123e
00000270: d1fa 15be 58aa 013e 6930 863e db7f ba39
00000280: a5cc 21bd 8752 37bb 420a 273c 4140 67bc
00000290: 8f8f a3bc 5b02 b0bd 6715 4abd 26af 72bc
000002a0: c661 e3bc dc61 64bd 6648 29be e8cc 4ebc
000002b0: 4df8 093b 9888 0d3e e899 8abd 7039 67bd
000002c0: 7f07 943d 1ea6 443e fa5c 7139 9ea3 17bc
000002d0: 4aaf 3c3e 9be6 9a3d 4987 3bbe 2be0 ff3d
000002e0: 29a8 903b c3c8 1bbe be50 b13c 067a 333e
000002f0: dc81 593e 12af 09bd 7c96 a33d 02f6 163e
00000300: a131 003d b7f4 c6bc 6466 fdbd 2774 153a
00000310: e553 52bc 5451 353e 2c94 d13d 39be 1f3d
00000320: b85f 963b 7b9d eb3c 0a96 9fbc 5e3c 4ebd
00000330: 2e47 a23d aef6 e8bc 3c5e 453e 0d5d 223e
00000340: 7520 b0bd 0119 033e dcbe 49be c8fa 813c
00000350: e29c 193e 58d6 bebc 2390 16bd 815e 9b3d
00000360: ce45 34be 8f57 da3d 04c9 503d 6839 0d3e
00000370: ab28 f3bd 34f6 8a3d c4b8 5dbd f4a8 0d39
00000380: b149 d93d a065 a4bc 3367 2b3e 5dd6 84bc
00000390: c9ea a6bc efcf 22bd 5ed8 fd3b 7f27 17bc
000003a0: 5390 d5bc 22ab 693e ead0 373d de65 a1bc
000003b0: 256b 583e 129f 92bd e3d1 54bd c624 38be
000003c0: 2294 6ebd 02f7 413d 2187 07be 4197 dbbc
000003d0: e6f1 34bd 07e2 81bc 0fc6 f13c 4395 9bbd
000003e0: 230f c0bc d1da 9a3b 6cf6 873d a24f 303e
000003f0: 3382 393d ad3f 0abd 6349 673c 87f4 bc3d

NAM_features.feature_nns.0.feature_nns.hidden_layers.1.bias f4 [64]
-0.65493375 -0.09502121 -0.49599338 -0.5256034 -0.322201 -0.14135042 0.19581865 -0.15538324
0.28541672 -0.02414393 0.18954961 0.049543243 0.0038736933 -0.048073273 0.3181469 0.14910595
-0.10891005 -0.46980038 0.11114903 -0.6944831 0.13590254 -0.6779782 -0.017522935 -0.030982913
0.04718342 0.026189985 -0.61148876 0.06320811 -0.47642705 0.5299339 -0.008966708 0.25524822
0.6453862 -0.24283952 -0.6101737 0.26916212 -0.3992396 -0.20931955 -0.6370797 -0.45710495
-0.17443308 0.17939906 0.031331602 -0.12517083 -0.106765985 -0.21830049 -0.51015073 -0.5685539
0.053866383 0.17787084 0.025122011 0.10370097 0.26124394 0.14496231 -0.119560145 -0.059220325
-0.3969889 -0.21968769 -0.49320364 0.8661414 -0.25660422 0.5343161 0.29886118 0.30151138
00000000: bda9 27bf 7b9a c2bd d8f2 fdbe f28d 06bf
00000010: 88f7 a4be 2abe 10be af84 483e c91c 1fbe
00000020: 2422 923e 7ec9 c5bc 4b19 423e dbed 4a3d
00000030: cadd 7d3b 7be8 44bd 27e4 a23e 3baf 183e
00000040: 3b0c dfbd ad89 f0be 1aa2 e33d a5c9 31bf
00000050: 092a 0b3e fb8f 2dbf 428c 8fbc e1cf fdbc
00000060: 6743 413d 618c d63c 878a 1cbf 4173 813d
00000070: 3fee f3be c0a9 073f 19e9 12bc e5af 823e
00000080: 0838 253f ecaa 78be 5834 1cbf 9ecf 893e
00000090: 2269 ccbe dd57 56be a817 23bf a909 eabe
000000a0: 969e 32be 63b4 373e 9155 003d c82c 00be
000000b0: 20a8 dabd 2a8a 5fbe 3d99 02bf c08c 11bf
000000c0: ffa2 5c3d c623 363e adcc cd3c 2d61 d43d
000000d0: c4c1 853e 0071 143e f3db f4bd 0391 72bd
000000e0: 2142 cbbe cff5 60be 3085 fcbe 71bb 5d3f
000000f0: a161 83be f1c8 083f 5504 993e b35f 9a3e

NAM_features.feature_nns.0.feature_nns.hidden_layers.2.weight f4 [64, 32]
-0.055578217 0.012833701 0.113335684 0.029726569 0.21358588 -0.15523222 -0.023924874 -0.07065186
-0.028777692 0.056506816 -0.0046945033 -0.20804565 -0.14504427 0.08720947 -0.22467034 -0.03837634
0.036172938 0.05785718 -0.045845173 -0.028165722 0.26189718 0.19319095 -0.158733 -0.08098398
-0.018360516 0.014522598 0.12469643 0.26081982 0.09224195 0.041704662 -0.18139917 -0.1173258
-0.10694526 -0.014225014 -0.058108706 -0.18151793 -0.050694328 0.037444305 0.13190296 -0.039104816
0.04658184 -0.054605383 0.15230976 -0.201338 0.19586359 -0.15552355 0.11455514 0.21400315
-0.11646727 0.18275428 -0.090530284 0.12350681 0.097374484 -0.252844 -0.26398543 0.082328625
-0.040650472 0.128678 -0.0985441 0.18465407 -0.044327594 0.034946214 0.15408212 -0.21490513
-0.09753638 0.15952334 -0.0121188 -0.16254044 -0.15612495 -0.041506287 -0.09332923 -0.22527736
0.14427528 0.19566175 -0.13141495 -0.0070130997 -0.043383468 -0.13519552 -0.0753677 0.049275834
0.110689804 0.16581711 -0.20957664 0.16320966 0.12599419 0.15562008 0.252166 0.086178206
-0.12730162 0.06701929 0.16283306 0.23473802 0.0022173575 0.08716242 0.0674404 -0.19868244
0.08081045 0.038950328 0.06217941 -0.1426074 0.1371158 0.15569527 0.009584531 0.071969844
0.05808545 -0.1750569 -0.07343509 -0.017378017 0.0079273395 0.019025618 -0.12912197 0.23065005
-0.18414402 0.12522979 0.20455417 0.004929853 0.08825978 0.0055416385 0.11109532 0.20891863
-0.07318058 0.020868616 -0.098065756 0.14132054 -0.23129772 -0.04769309 0.20336439 -0.08814377
-0.03619774 -0.019523116 -0.19632518 -0.2677747 -0.06026936 0.18509324 0.015436914 0.03613949
0.2514606 -0.20448917 -0.18476595 -0.15946263 -0.006173197 0.15699612 0.26172245 0.18487938
-0.21440502 -0.021524688 -0.0769786 -0.19628146 -0.13111223 -0.09166101 -0.28561142 0.006306768
0.03247451 -0.22231054 0.16035768 -0.09658479 0.18130977 0.23530163 0.06921393 -0.00023924044
0.059039533 0.1905844 -0.25710905 0.10487606 -0.07031329 0.18708937 -0.046119597 -0.06136553
0.020318802 -0.2326271 -0.08135846 0.32614872 -0.22118995 0.16399851 -0.16769093 0.07383474
-0.08371906 0.19118017 -0.119326174 0.19703993 0.21051486 -0.14927277 -0.08798802 -0.009798079
-0.1393933 0.27365178 0.17668839 -0.24655904 0.11005081 -0.1937599 0.034538027 0.10246088
0.10257 0.23518638 -0.027866807 -0.06962197 0.13863528 0.056194797 0.070388466 -0.009685481
-0.0022011364 0.008874973 -0.17022207 0.30785185 0.0034753887 -0.051151063 -0.13312793 0.18271723
0.12842903 -0.055569444 -0.16969976 -0.1946267 0.23659073 -0.19425161 -0.2265125 -0.29484847
-0.21968737 0.22079009 -0.08082051 -0.10741871 -0.24023563 -0.1600817 -0.23152643 -0.027224798
-0.04665993 -0.14280263 -0.09452375 -0.16625105 0.042270012 -0.027188834 -0.086570576 0.03706919
-0.27791515 0.2791901 0.15692177 -0.05289416 -0.020800663 0.012842555 0.12763135 0.04747834
0.027195042 0.094191805 -0.18259011 -0.019730242 0.256557 0.103066415 0.16185606 0.029559188
0.059184168 0.16692664 -0.24354643 0.22896205 0.22083 -0.09455447 -0.07125497 0.15629491
00000000: fca5 63bd 7244 523c 8a1c e83d 2285 f33c
00000010: 42b6 5a3e 32f5 1ebe 19fe c3bc ecb1 90bd
00000020: 32bf ebbc b173 673d 59d4 99bb eb09 55be
00000030: 7c86 14be e19a b23d fb0f 66be 8230 1dbd
00000040: 132a 143d a6fb 6c3d 26c8 3bbd cdbb e6bc
00000050: 6317 863e d9d3 453e e78a 22be eeda a5bd
00000060: cb68 96bc 31f0 6d3c d860 ff3d 2d8a 853e
00000070: 59e9 bc3d 82d2 2a3d b4c0 39be 8248 f0bd
00000080: 1e06 dbbd 0810 69bc 6503 6ebd d6df 39be
00000090: dba4 4fbd 335f 193d 9211 073e 5f2c 20bd
000000a0: 99cc 3e3d e5a9 5fbd 17f7 1b3e 8c2b 4ebe
000000b0: 7790 483e 9141 1fbe e39b ea3d a423 5b3e
000000c0: 6486 eebd f023 3b3e f167 b9bd 23f1 fc3d
000000d0: 466c c73d c574 81be 1929 87be e99b a83d
000000e0: 1c81 26bd 2ac4 033e 7dd1 c9bd f515 3d3e
000000f0: da90 35bd c323 0f3d b4c7 1d3e 1710 5cbe
00000100: 27c1 c7bd 165a 233e ee8d 46bc 0071 26be
00000110: 38df 1fbe 7f02 2abd 6523 bfbd 1caf 66be
00000120: e6bc 133e 8e5b 483e a491 06be 25ce e5bb
00000130: ddb2 31bd b270 0abe 615a 9abd 75d5 493d
00000140: 56b1 e23d f6cb 293e 429b 56be 6f20 273e
00000150: 9f04 013e df5a 1f3e e71b 813e 337e b03d
00000160: 5b5b 02be 6941 893d b6bd 263e 2a5f 703e
00000170: 1651 113b 3682 b23d 311e 8a3d 6973 4bbe
00000180: f37f a53d 618a 1f3d d6af 7e3d ad07 12be
00000190: 1668 0c3e 956e 1f3e 7008 1d3c ed64 933d
000001a0: 02eb 6d3d 1e42 33be 2365 96bd 585c 8ebc
000001b0: ace1 013c 9ddb 9b3c 8d38 04be 872f 6c3e
000001c0: 4090 3cbe 3d3c 003e a676 513e 9b8a a13b
000001d0: 8bc1 b43d a296 b53b f185 e33d c4ee 553e
000001e0: b3df 95bd a9f4 aa3c b3d6 c8bd 55b6 103e
000001f0: 4fd9 6cbe d459 43bd c13e 503e b984 b4bd
00000200: 1544 14bd f1ee 9fbc 7809 49be c419 89be
00000210: 01dd 76bd 1589 3d3e 1ceb 7c3c 0007 143d
00000220: 72bf 803e 9c65 51be 4933 3dbe 2c4a 23be
00000230: 8848 cabb 97c3 203e 7c00 863e 0551 3d3e
00000240: fd8c 5bbe 8b54 b0bc f5a6 9dbd 02fe 48be
00000250: 4942 06be c5b8 bbbd a93b 92be 01a9 ce3b
00000260: fe03 053d 60a5 63be ce34 243e 3fce c5bd
00000270: 45a9 393e e9f2 703e 08c0 8d3d 9edc 7ab9
00000280: 70d3 713d 8f28 433e cca3 83be 42c9 d63d
00000290: 6a00 90bd 5b94 3f3e e7e7 3cbd 6c5a 7bbd
000002a0: 9e73 a63c cc35 6ebe 449f a6bd f7fc a63e
000002b0: 9e7f 62be 3aef 273e 2cb7 2bbe ab36 973d
000002c0: e674 abbd bcc4 433e 4861 f4bd d6c4 493e
000002d0: 3591 573e f6da 18be 1033 b4bd 1f88 20bc
000002e0: 1ebd 0ebe 161c 8c3e cded 343e f979 7cbe
000002f0: 5262 e13d ff68 46be bf77 0d3d 03d7 d13d
00000300: 3810 d23d b3d4 703e ee48 e4bc f795 8ebd
00000310: 68f6 0d3e 842c 663d d427 903d daaf 1ebc
00000320: f140 10bb 5668 113c b24e 2ebe c29e 9d3e
00000330: 59c3 633b c783 51bd b052 08be 3a1a 3b3e
00000340: e682 033e c99c 63bd c6c5 2dbe 394c 47be
00000350: d744 723e e5e9 46be e5f2 67be 61f6 96be
00000360: baf5 60be cc16 623e 3985 a5bd 57fe dbbd
00000370: 5400 76be 75ec 23be 4415 6dbe 8a06 dfbc
00000380: 7c1e 3fbd da3a 12be ab95 c1bd b73d 2abe
00000390: 5223 2d3d 1ebb debc ea4b b1bd ddd5 173d
000003a0: e54a 8ebe 01f2 8e3e 1ab0 203e 8ca7 58bd
000003b0: 2766 aabc 9469 523c cbb1 023e a678 423d
000003c0: 23c8 de3c a2e7 c03d e7f8 3abe 51a1 a1bc
000003d0: 705b 833e 7c14 d33d 98bd 253e 1c26 f23c
000003e0: 196b 723d d1ee 2a3e 3c64 79be 0775 6a3e
000003f0: 4221 623e c6a5 c1bd 20ee 91bd c60b 203e

NAM_features.feature_nns.0.feature_nns.hidden_layers.2.bias f4 [64]
-0.15843904 0.71138966 -0.839537 0.29070613 0.2250276 -0.10379066 -0.31545126 -0.27409643
0.7783666 -0.40865958 0.39075196 0.15261592 0.20574065 0.31818736 0.09634666 -0.9070455
-0.33356753 -0.112384915 -0.44421837 0.2618609 -0.06676204 -0.48523155 0.43290922 -0.42971405
-0.36483756 0.060182936 -0.46695822 0.07075105 0.5571048 0.043527935 -0.19165201 0.41304743
-0.1494779 -0.90837723 0.49008772 -0.30690554 -0.1607865 0.6364926 -0.32538703 -0.8084512
-0.7104455 -0.35762554 -0.0077604703 -0.1448254 -0.05678266 0.118731566 0.35247076 -0.22331332
0.009880048 -0.045471404 -0.12876967 -0.07674465 -0.9834563 -0.134478 0.21616136 -0.04686119
0.8123034 -0.7699329 0.46069843 -0.8843791 -0.011190547 -0.33068818 0.41166413 -0.35989302
00000000: d83d 22be a21d 363f e6eb 56bf 6fd7 943e
00000010: a36d 663e 3390 d4bd d482 a1be 5e56 8cbe
00000020: 0943 473f d43b d1be a410 c83e 5947 1c3e
00000030: adad 523e 74e9 a23e 6651 c53d 2234 68bf
00000040: 5dc9 aabe 102a e6bd 9770 e3be a212 863e
00000050: 89ba 88bd 4570 f8be 47a6 dd3e 7b03 dcbe
00000060: fdcb babe 6282 763d 2615 efbe ede5 903d
00000070: 6c9e 0e3f 594a 323d 6d40 44be f47a d33e
00000080: bc10 19be 698b 68bf c7ec fa3e b922 9dbe
00000090: 37a5 24be 2ef1 223f 2199 a6be a8f6 4ebf
000000a0: c2df 35bf b21a b7be 8b4b febb 1c4d 14be
000000b0: ef94 68bd 8929 f33d 0c77 b43e 3fac 64be
000000c0: eddf 213c 3940 3abd 32dc 03be 4d2c 9dbd
000000d0: cbc3 7bbf 9ab4 09be 6759 5d3e 85f1 3fbd
000000e0: 1ef3 4f3f 531a 45bf aae0 eb3e ab66 62bf
000000f0: 8e58 37bc f64f a9be a4c5 d23e e643 b8be

NAM_features.feature_nns.0.feature_nns.output_layer.weight f4 [4, 32]
-0.38109973 0.22705932 -0.20596771 -0.115021825 -0.19251788 -0.028909897 0.015820337 -0.029330622
0.19772269 0.011614425 -0.3488005 0.5054888 -0.034817304 -0.10007251 0.31380665 0.18369614
-0.012319468 -0.042624917 -0.27687818 0.18378152 -0.13172282 0.12230188 -0.2950056 0.20531452
-0.1984357 -0.12354512 -0.13798462 -0.30841455 0.23466721 -0.22299767 0.23858744 -0.14216779
0.15538496 0.012940287 -0.3622517 -0.44268107 -0.19380802 0.26169968 -0.084802024 -0.25911957
-0.2703151 -0.16538748 0.36016485 0.3632783 -0.14672633 -0.16684903 0.31264398 -0.06137761
0.06355889 -0.10265448 0.031026771 0.034184404 0.15098843 0.23753066 -0.2745557 -0.11829892
0.17508754 0.4398136 0.27208316 -0.35655582 -0.008089743 -0.033447903 0.08866558 0.0809249
0.37679866 -0.033941127 0.2136581 -0.045717966 0.003064756 -0.3377892 0.15923287 -0.028999092
-0.14776225 0.21086188 -0.18938227 -0.024333183 0.117207885 -0.22274345 0.25682327 -0.072597295
0.23765184 -0.14775339 -0.22807662 0.21264474 -0.04148179 0.30563793 0.1773679 0.20345134
0.24246348 0.11718021 -0.23047698 0.19408676 0.409091 -0.35875955 0.14912166 0.4343802
-0.19513597 -0.07099313 0.050701108 0.2856668 0.4121357 0.33135903 0.21275243 -0.3080175
-0.21361065 0.048971903 0.16195017 -0.28780943 -0.25473455 -0.28308043 -0.19055071 0.08525681
0.4219092 0.30694717 -0.27481562 0.1847613 0.2797513 0.26538178 0.14067775 -0.15016659
-0.10385243 -0.16146743 0.1830042 -0.10811878 -0.16066559 -0.34470206 -0.05623009 -0.0930683
00000000: 811f c3be 3d82 683e 33e9 52be 9090 ebbd
00000010: 6823 45be 73d4 ecbc a799 813c c646 f0bc
00000020: d177 4a3e 6e4a 3e3c fb95 b2be b767 013f
00000030: 979c 0ebd d1f2 ccbd 44ab a03e d71a 3c3e
00000040: 98d7 49bc 7797 2ebd fac2 8dbe 3931 3c3e
00000050: 59e2 06be 6879 fa3d f90a 97be f83d 523e
00000060: ba32 4bbe 3905 fdbd d74b 0dbe 83e8 9dbe
00000070: 9a4c 703e 8059 64be 4450 743e 6f94 11be
00000080: 3c1d 1f3e 7f03 543c 0e79 b9be 18a7 e2be
00000090: 9c75 46be 80fd 853e afac adbd 52ab 84be
000000a0: be66 8abe 565b 29be 8767 b83e 9dff b93e
000000b0: 6d3f 16be 79da 2abe df12 a03e 1767 7bbd
000000c0: 2a2b 823d 833c d2bd db2b fe3c f204 0c3d
000000d0: b69c 1a3e 3d3b 733e 9192 8cbe b446 f2bd
000000e0: 264a 333e 402f e13e 7c4e 8b3e 7c8e b6be
000000f0: d78a 04bc ab00 09bd 4d96 b53d f4bb a53d
00000100: c1eb c03e da05 0bbd 30c9 5a3e c342 3bbd
00000110: 13da 483b b5f2 acbe f10d 233e 818f edbc
00000120: fd4e 17be 2dec 573e 6ded 41be 6256 c7bc
00000130: b00a f03d dc16 64be 577e 833e e4ad 94bd
00000140: 015b 733e aa4c 17be eb8c 69be 8bbf 593e
00000150: cfe8 29bd 937c 9c3e ee9f 353e 8c55 503e
00000160: 5948 783e 2efc ef3d 2802 6cbe aebe 463e
00000170: 6074 d13e 55af b7be 59b3 183e 1567 de3e
00000180: b9d1 47be d964 91bd f7ab 4f3d eb42 923e
00000190: 7303 d33e e4a7 a93e c6db 593e 78b4 9dbe
000001a0: c0bc 5abe c396 483d 44d6 253e c25b 93be
000001b0: 916c 82be ebef 90be ba1f 43be 1f9b ae3d
000001c0: 7c04 d83e 2e28 9d3e a2b4 8cbe 1132 3d3e
000001d0: 903b 8f3e 1fe0 873e d40d 103e 45c5 19be
000001e0: 95b0 d4bd b857 25be 7465 3b3e 616d ddbd
000001f0: 8585 24be ca7c b0be 8651 66bd 989a bebd

NAM_features.feature_nns.1.feature_nns.hidden_layers.0.weight f4 [1, 64]
-0.002838752 -0.023993487 0.16624399 -0.0075821253 -0.024788555 -0.03976278 0.3577051 -0.0052381367
-0.0016337145 -0.033515442 0.16970803 -0.024881616 0.26774678 -0.018448707 0.4313852 -0.024569746
0.27974737 0.19635487 0.27978832 0.45641178 -0.00043567742 -0.00301 0.22284727 -0.0042218477
-0.018544158 0.4319167 -0.0005674252 0.26622683 -0.029517358 -0.036059268 -0.010727515 0.401063
0.2800559 -0.008826456 -0.031305056 0.30960694 -0.018590039 -0.026591668 0.34472468 0.3801979
-0.030499449 -0.0034349705 -0.032661054 -0.034116577 0.01897016 0.26541263 0.22832932 -0.029090082
0.27184573 -0.022690982 -0.027361648 -0.021125149 -0.03641678 0.43203807 0.30871525 -0.016535645
0.266168 0.38325712 -0.032180797 -0.022551946 -0.00662075 0.27916467 0.35867766 0.33033285
00000000: 5b0a 3abb fd8d c4bc dd3b 2a3e 7a73 f8bb
00000010: 5e11 cbbc 4cde 22bd 1f25 b73e ada4 abbb
00000020: 5d22 d6ba 7d47 09bd f1c7 2d3e 88d4 cbbc
00000030: 1b16 893e be21 97bc 85de dc3e 7e46 c9bc
00000040: 0c3b 8f3e 4011 493e 6a40 8f3e ceae e93e
00000050: a26b e4b9 6c43 45bb 1332 643e 6d57 8abb
00000060: ebe9 97bc 3024 dd3e 43bf 14ba e24e 883e
00000070: 63ce f1bc e2b2 13bd 76c2 2fbc 2158 cd3e
00000080: 7d63 8f3e d79c 10bc bb39 00bd cd84 9e3e
00000090: 234a 98bc c5d6 d9bc c17f b03e 4da9 c23e
000000a0: fbd9 f9bc 3e1d 61bb 99c7 05bd d3bd 0bbd
000000b0: 4f67 9b3c 2ae4 873e 29cf 693e 534e eebc
000000c0: 5d2f 8b3e 70e2 b9bc 8925 e0bc a60e adbc
000000d0: c329 15bd 1834 dd3e ed0f 9e3e c375 87bc
000000e0: 2c47 883e 473a c43e 03d0 03bd dcbe b8bc
000000f0: e0f2 d8bb acee 8e3e 99a4 b73e 6321 a93e

NAM_features.feature_nns.1.feature_nns.hidden_layers.1.weight f4 [64, 64]
0.21204464 0.07568411 -0.09634294 0.09239711 -0.057886012 0.093120724 -0.020224892 -0.005230276
0.01743792 0.09710158 -0.03229446 0.12501799 -0.06949157 0.03606738 -0.12375569 0.018901076
0.066940196 -0.075298004 0.04860586 0.19057974 -0.026092932 0.14481784 0.030965012 0.026397627
-0.06685592 0.24526823 0.0046303435 0.062011495 0.11549374 0.035050638 -0.05881473 0.08656076
0.111704834 -0.14259118 -0.061322868 0.13497327 0.09057833 -0.106203265 0.14604288 -0.0047278227
-0.03131187 -0.07484233 0.029231716 0.16284928 0.1751725 0.15871768 0.23161077 0.10378307
-0.16517049 -0.065322004 0.23140085 0.16209783 0.027652305 -0.1484537 0.055154204 0.06673828
-0.15117837 -0.022712417 -0.03498463 0.027307536 0.23946019 0.0067050396 -0.047491115 -0.07378406
0.14595675 -0.06325459 -0.03675932 0.02911969 -0.1791566 -0.026544394 0.00075622124 -0.17705655
0.002593465 0.0049030585 -0.16093487 -0.0020750766 -0.2454547 0.034518957 -0.16262475 -0.19242626
-0.022024153 0.027699202 -0.0057464535 -0.13338427 0.08274134 -0.031226346 -0.036546167 0.093614
-0.21967448 0.122259036 -8.6695545e-05 -0.14897777 -0.21571065 -0.13900839 0.07286528 -0.010872276
-0.093918 -0.086698964 -0.16509996 0.12320819 -0.0018749088 0.03847218 -0.04996073 -0.010824533
0.030550526 0.08662437 -0.025616787 -0.03759961 -0.11114866 -0.2518921 0.060951624 -0.18383469
-0.112227604 0.15943608 -0.04454678 0.01063844 -0.061882716 -0.0674852 0.13497242 -0.26233494
-0.25996357 -0.13626313 -0.24620871 0.046182487 -0.17315516 -0.26246837 -0.07272914 -0.14270839
-0.03138988 0.050013956 -0.12717827 0.3628851 0.16918117 0.009360939 0.067911215 0.2639184
0.34057605 0.0060787993 0.15290216 -0.0037087563 0.172186 0.04203723 0.1831826 0.100388214
0.020091318 0.05400965 0.0034990273 0.01433325 0.12807539 0.008824141 0.120879926 0.07922533
0.2873667 0.03949736 -0.0014409146 0.35290748 0.09112159 -0.016533533 0.2658477 0.012060771
0.26817635 -0.011639405 0.07954905 0.07840067 0.06130881 0.12316227 0.02866604 0.028193021
0.052941505 0.14300455 -0.00901563 0.06590682 0.1326944 -0.13802533 0.07374588 0.17838772
0.18326396 0.21984291 -0.13435824 0.19146557 0.03130205 0.065934286 0.03139772 0.39019474
0.08222179 -0.23691118 0.22370392 0.14733979 0.32963344 0.13945854 -0.035447795 -0.089796506
0.26616868 0.0211396 0.1097038 0.098392814 -0.09329195 0.104116574 0.13263437 -0.12734729
0.18750222 0.00018911519 0.104594104 -0.022924606 -0.14593409 -0.019145094 0.21442817 0.16964327
0.069753364 -0.15710397 0.0039605303 -0.07637166 -0.07239627 0.022126779 0.14917144 0.07761442
0.04767848 0.08446372 -0.00041697564 -0.008006558 0.07222612 -0.11571067 0.20449793 0.0066740694
0.14086652 0.044872005 -0.10232454 -0.15694678 -0.012917369 0.030471196 0.0423882 0.012736756
-0.032642815 -0.016057765 -0.12708095 0.082531005 0.02536996 0.06896671 0.051178947 0.17899312
0.038264662 -0.15150735 0.15917587 0.0027301414 0.11215678 -0.12926273 -0.062690556 0.108027026
0.03872095 -0.06505909 0.11301679 0.049775574 -0.068398796 -0.04725927 -0.017652301 -0.042737845
00000000: 3b22 593e 4500 9b3d 734f c5bd b23a bd3d
00000010: e219 6dbd 14b6 be3d acae a5bc bc62 abbb
00000020: f8d9 8e3c 31dd c63d 3247 04bd b704 003e
00000030: 9951 8ebd 64bb 133d a073 fdbd 6ed6 9a3c
00000040: f117 893d d735 9abd f016 473d 5627 433e
00000050: d8c0 d5bc 214b 143e 56aa fd3c d63f d83c
00000060: c2eb 88bd 9827 7b3e 23ba 973b c4ff 7d3d
00000070: fb87 ec3d 4291 0f3d b7e7 70bd c546 b13d
00000080: 81c5 e43d 6c03 12be b02d 7bbd 6f36 0a3e
00000090: 2281 b93d 1981 d9bd 448c 153e daeb 9abb
000000a0: e040 00bd ef46 99bd 5a77 ef3c f6c1 263e
000000b0: 6b60 333e e386 223e 602b 6d3e 388c d43d
000000c0: 7422 29be 8bc7 85bd 58f4 6c3e f9fc 253e
000000d0: 1687 e23c 3f04 18be 60e9 613d 14ae 883d
000000e0: 81ce 1abe 640f babc 0b4c 0fbd 0eb4 df3c
000000f0: 0d35 753e f3b5 db3b 0b86 42bd 191c 97bd
00000100: b075 153e 9f8b 81bd f190 16bd 6b8c ee3c
00000110: d474 37be a173 d9bc 263d 463a 504e 35be
00000120: 1ff7 293b d6a9 a03b 1ccc 24be 02fe 07bb
00000130: 7a58 7bbe c063 0d3d 1a87 26be 640b 45be
00000140: ff6b b4bc 70e9 e23c bf4c bcbb e395 08be
00000150: 4b74 a93d 65ce ffbc 6fb1 15bd b2b8 bf3d
00000160: 59f2 60be f262 fa3d 51d0 b5b8 a18d 18be
00000170: 41e3 5cbe 3758 0ebe 643a 953d a121 32bc
00000180: 1558 c0bd 3a8f b1bd f70f 29be 9354 fc3d
00000190: 80bf f5ba 0195 1d3d 9fa3 4cbd 6259 31bc
000001a0: 1945 fa3c 1e68 b13d 4cda d1bc 0c02 1abd
000001b0: e9a1 e3bd 00f8 80be 69a8 793d 293f 3cbe
000001c0: 96d7 e5bd 3643 233e af76 36bd da4c 2e3c
000001d0: bb78 7dbd ae35 8abd 3636 0a3e c450 86be
000001e0: f219 85be 9088 0bbe 231e 7cbe d929 3d3d
000001f0: 964f 31be 4162 86be 04f3 94bd 2622 12be
00000200: ad92 00bd 6fdb 4c3d 053b 02be 13cc b93e
00000210: d43d 2d3e a05e 193c 0915 8b3d 5020 873e
00000220: fc5f ae3e aa30 c73b 6292 1c3e 9b0e 73bb
00000230: 8751 303e 3b2f 2c3d 3894 3b3e 5698 cd3d
00000240: 8c96 a43c 3939 5d3d f04f 653b 02d6 6a3c
00000250: 3226 033e 2193 103c e58f f73d e440 a23d
00000260: ba21 933e fcc7 213d 12dd bcba 4ab0 b43e
00000270: f59d ba3d 5571 87bc 311d 883e 8a9a 453c
00000280: 694e 893e 34b3 3ebc 9dea a23d 8890 a03d
00000290: f21e 7b3d 803c fc3d 0bd5 ea3c 0df5 e63c
000002a0: 31d9 583d c96f 123e 4bb6 13bc 28fa 863d
000002b0: 0ae1 073e 8356 0dbe 1408 973d 45ab 363e
000002c0: 8ca9 3b3e 801e 613e 3595 09be 8d0f 443e
000002d0: 9436 003d 8e08 873d e59a 003d 9bc7 c73e
000002e0: e663 a83d d898 72be a412 653e 3ee0 163e
000002f0: b7c5 a83e 38ce 0e3e b531 11bd 3be7 b7bd
00000300: 4347 883e f42c ad3c 63ac e03d 2c82 c93d
00000310: da0f bfbd 123b d53d 4ed1 073e 5467 02be
00000320: 9500 403e 394d 4639 6f35 d63d 62cc bbbc
00000330: bf6f 15be 2cd6 9cbc 0f93 5b3e f7b6 2d3e
00000340: dada 8e3d dddf 20be 56c7 813b bf68 9cbd
00000350: 7f44 94bd 3843 b53c 66c0 183e 4ff4 9e3d
00000360: 834a 433d 51fb ac3d 869d dab9 f02d 03bc
00000370: 4aeb 933d b7f9 ecbd e867 513e 27b2 da3b
00000380: 503f 103e b5cb 373d 878f d1bd a8b6 20be
00000390: 5fa3 53bc bb9e f93c 409f 2d3d d4ad 503c
000003a0: 79b4 05bd 938b 83bc 8221 02be 0406 a93d
000003b0: aad4 cf3c 6b3e 8d3d 04a1 513d f949 373e
000003c0: 68bb 1c3d be24 1bbe 00ff 223e 2cec 323b
000003d0: 74b2 e53d 735d 04be e863 80bd 463d dd3d
000003e0: dc99 1e3d b33d 85bd 5975 e73d 79e1 4b3d
000003f0: ab14 8cbd f092 41bd 8f9b 90bc e10d 2fbd

NAM_features.feature_nns.1.feature_nns.hidden_layers.1.bias f4 [64]
0.73694235 -0.14826141 0.25177363 0.07763979 0.38152105 -0.41222727 0.05986207 -0.12150573
0.09560164 -0.054877214 0.3842869 -0.4913664 0.8958035 -0.13861105 0.070996925 0.79366225
0.077406034 0.2307949 -0.260848 -0.817396 0.7815989 -0.080056265 0.6234836 0.49988338
0.1639325 -0.025450801 -0.14368378 -0.5502865 0.49707142 -0.40636608 0.56452185 0.27275953
-0.13150163 0.2138177 0.205074 -0.12248673 -0.8455747 -0.13255344 0.7286487 -0.3372994
-0.6519815 0.22273456 0.31740522 0.6952314 -0.26251793 0.29436243 -0.25703374 0.39148614
-0.3764675 -0.06669915 -0.13432543 0.5228884 -0.010518851 -0.45188218 0.29800445 -0.61568904
0.3870527 0.42402658 0.015029518 0.07537183 0.44060478 0.48474604 0.45241666 -0.2203171
00000000: 41a8 3c3f d7d1 17be 79e8 803e 9c01 9f3d
00000010: ba56 c33e 740f d3be ee31 753d ffd7 f8bd
00000020: cbca c33d eec6 60bd 41c1 c43e 6094 fbbe
00000030: 6153 653f 0ef0 0dbe d666 913d 732d 4b3f
00000040: 0e87 9e3d 8055 6c3e de8d 85be dd40 51bf
00000050: de16 483f 8af4 a3bd 9f9c 1f3f b7f0 ff3e
00000060: ecdd 273e 337e d0bc d721 13be 93df 0cbf
00000070: 2580 fe3e 370f d0be 8184 103f 23a7 8b3e
00000080: 5da8 06be 07f3 5a3e ebfe 513e 53da fabd
00000090: 9577 58bf 17bc 07be b988 3a3f 82b2 acbe
000000a0: 42e8 26bf 8714 643e f082 a23e affa 313f
000000b0: c068 86be acb6 963e ed99 83be df70 c83e
000000c0: 59c0 c0be 9099 88bd 9b8c 09be 04dc 053f
000000d0: 4257 2cbc 1a5d e7be 0a94 983e cc9d 1dbf
000000e0: c62b c63e 031a d93e 5e3e 763c 8c5c 9a3d
000000f0: f396 e13e a230 f83e 28a3 e73e ce9a 61be

NAM_features.feature_nns.1.feature_nns.hidden_layers.2.weight f4 [64, 32]
0.26838967 0.27441916 -0.11208368 0.0322115 -0.17787968 0.07178377 0.11594969 0.1452498
0.014568662 0.06321746 -0.12352922 0.15928757 -0.23592733 -0.14757092 -0.2102171 0.19851944
0.1108346 0.022161286 0.020255921 0.14726426 -0.06541594 0.32061508 -0.20975807 0.20171188
0.09123703 0.041208874 -0.079201736 -0.0038232245 0.03565968 0.0029445365 0.08510791 0.106590174
0.13419242 -0.04148414 0.039675217 0.055704273 0.07596835 -0.12612437 0.047813457 -0.16302255
0.21103016 -0.004273158 -0.06770059 -0.010195767 0.27786183 0.28259578 0.03589991 -0.1682445
-0.21516687 0.010761142 0.16862884 -0.07979483 0.16514842 -0.0871862 0.28203693 -0.033707973
0.23817055 0.107831486 0.1020485 -0.22463752 -0.1423664 -0.15734386 -0.016860124 -0.12578493
-0.06953099 -0.046926584 -0.24275628 -0.2627846 -0.05766336 0.023350287 0.2886268 0.16455401
-0.09354232 -0.1026104 -0.19113627 -0.21032998 0.118405655 -0.042198762 0.09297908 -0.04114888
0.13474402 0.16542096 0.005183045 0.14617433 0.043419134 0.087577194 0.1388542 0.22729369
0.01602777 -0.24525072 0.25529003 -0.069824815 -0.072946906 0.14487073 0.2674909 -0.16213793
0.11276002 0.21368146 0.020159539 -0.05187012 0.02691506 -0.14101417 0.40651685 0.3470772
-0.16000366 -0.015792428 0.052614678 -0.0850027 -0.020783728 0.12427241 0.008898996 0.074992485
-0.013560905 0.25384855 0.06333876 0.054864768 0.23871088 0.17721553 -0.04699514 0.31690717
0.19374213 -0.010850504 0.25077838 0.34866565 0.06395204 0.2284315 -0.0601492 0.07152624
0.15223716 -0.09167107 -0.20789976 -0.16339485 -0.24385183 0.27693307 0.07466926 0.24458613
-0.025724394 0.19602913 -0.18211658 0.049872097 0.07638515 -0.112817675 -0.19143952 0.21940766
0.21377735 0.23244423 0.19593666 -0.08249353 0.10825432 0.24581355 0.11813091 0.21307014
0.24243966 0.14176463 -0.08996069 0.27050036 0.19753166 -0.15765956 0.3202882 -0.1361388
0.15802929 0.011153377 -0.11308922 -0.20366277 0.1740483 0.036863133 -0.019392012 0.18881743
-0.12108109 0.22602695 -0.24680991 -0.04177753 0.06974071 0.021107761 -0.20259273 0.033291828
0.18221188 -0.02715799 -0.005868627 -0.1244142 -0.25073394 0.2409091 -0.065357454 -0.20734139
-0.06281103 -0.009682931 0.06367949 0.257778 0.0050116484 -0.22904257 0.1852767 0.14059423
-0.063487366 0.25493127 -0.07235661 0.10768605 -0.23029219 0.092641674 0.21210697 0.16944963
0.00011972177 0.11713479 0.106163815 -0.033076324 -0.15049821 -0.16776976 -0.01317705 0.24650161
0.089449376 0.30330017 -0.121403605 0.030809212 0.11542466 0.17407468 0.067913875 0.22954133
0.26420993 0.09391457 0.3112348 -0.041780915 -0.04723658 0.23626855 0.24817656 0.19027151
-0.03731345 0.03526515 -0.05699038 -0.12692933 -0.014893887 0.16962905 0.2511366 0.19891764
0.032264255 0.29422128 0.06614662 0.03992456 0.0651305 0.15765403 0.097299084 -0.06563625
0.23709516 0.16440813 0.03560201 0.08082841 0.23443481 0.17568462 -0.11311649 -0.0643212
0.22693583 -0.11430195 0.31868222 0.15092942 0.1698227 -0.22228496 -0.106713 -0.06236506
00000000: 5f6a 893e ab80 8c3e 218c e5bd 35f0 033d
00000010: 1726 36be 5f03 933d 0877 ed3d 5dbc 143e
00000020: 66b1 6e3c 2878 813d e3fc fcbd 481c 233e
00000030: ef96 71be d51c 17be 2743 57be ae48 4b3e
00000040: 40fd e23d 968b b53c bfef a53c 71cc 163e
00000050: cbf8 85bd a927 a43e d2ca 56be 8f8d 4e3e
00000060: 7bda ba3d a3ca 283d 8534 a2bd 108f 7abb
00000070: e20f 123d 20f9 403b 0e4d ae3d f34b da3d
00000080: bd69 093e 46eb 29bd 7b82 223d 2a2a 643d
00000090: 4b95 9b3d bf26 01be 0bd8 433d 62ef 26be
000000a0: 4a18 583e d905 8cbb 9ba6 8abd 250c 27bc
000000b0: e843 8e3e 65b0 903e c90b 133d 4948 2cbe
000000c0: b454 5cbe 804f 303c 0aad 2c3e 796b a3bd
000000d0: ab1c 293e ae8e b2bd 2567 903e 5f11 0abd
000000e0: fbe2 733e c1d6 dc3d cefe d03d 6107 66be
000000f0: 7fc8 11be c01e 21be 3e1e 8abc c4cd 00be
00000100: 4466 8ebd 1736 40bd 1a95 78be b48b 86be
00000110: 6a30 6cbd 1a49 bf3c e4c6 933e d980 283e
00000120: 1e93 bfbd 6725 d2bd 3ab9 43be be60 57be
00000130: aa7e f23d 9cd8 2cbd d16b be3d ba8b 28bd
00000140: 56fa 093e 1d64 293e 88d6 a93b b9ae 153e
00000150: 43d8 313d ac5b b33d cc2f 0e3e adbf 683e
00000160: ab4c 833c 0123 7bbe 60b5 823e 5000 8fbd
00000170: 3065 95bd fe58 143e 91f4 883e 7c07 26be
00000180: baee e63d 50cf 5a3e 9e25 a53c c375 54bd
00000190: f97c dc3c 0566 10be fa22 d03e 1ab4 b13e
000001a0: 00d8 23be 1f5f 81bc 7d82 573d e515 aebd
000001b0: a342 aabc 8982 fe3d 18cd 113c a995 993d
000001c0: 8f2e 5ebc 70f8 813e c0b7 813d e1b9 603d
000001d0: a070 743e fd77 353e fa7d 40bd a841 a23e
000001e0: 5664 463e 50c6 31bc 0666 803e 4e84 b23e
000001f0: 4af9 823d f2e9 693e 025f 76bd 597c 923d
00000200: 0fe4 1b3e 0bbe bbbd ade3 54be fb50 27be
00000210: 4bb4 79be 2cca 8d3e 32ec 983d c974 7a3e
00000220: f7bb d2bc dcbb 483e c57c 3abe af46 4c3d
00000230: d16f 9c3d f40c e7bd b908 44be 67ac 603e
00000240: 73e8 5a3e dc05 6e3e 9fa3 483e 5ef2 a8bd
00000250: 71b4 dd3d 8cb6 7b3e 9eee f13d 0f2f 5a3e
00000260: 1a42 783e bf2a 113e 4f3d b8bd 067f 8a3e
00000270: bd45 4a3e 8271 21be d1fc a33e f867 0bbe
00000280: 6ed2 213e a7bc 363c 529b e7bd f98c 50be
00000290: b839 323e ccfd 163d ffdb 9ebc 5b59 413e
000002a0: 5df9 f7bd 9c73 673e bdbb 7cbe ea1e 2bbd
000002b0: 38d4 8e3d 2fea ac3c 7874 4fbe 035d 083d
000002c0: c095 3a3e 6f7a debc 9d4d c0bb dfcc febd
000002d0: 3360 80be e0b0 763e 21da 85bd 4d51 54be
000002e0: 12a3 80bd 28a5 1ebc 646a 823d 7afb 833e
000002f0: c138 a43b 238a 6abe 2db9 3d3e eff7 0f3e
00000300: aa05 82bd 5a86 823e b42f 94bd 818a dc3d
00000310: b7d1 6bbe ebba bd3d 9232 593e 3484 2d3e
00000320: 2313 fb38 5de4 ef3d 6a6c d93d 0a7b 07bd
00000330: 341c 1abe d6cb 2bbe 8ee4 57bc eb6a 7c3e
00000340: 3c31 b73d 294a 9b3e 74a2 f8bd 9a63 fc3c
00000350: c463 ec3d a240 323e 6e16 8b3d e20c 6b3e
00000360: 8646 873e 4856 c03d 2b5a 9f3e 7722 2bbd
00000370: 257b 41bd 62f0 713e ff21 7e3e 89d6 423e
00000380: fdd5 18bd 3172 103d bf6e 69bd c3f9 01be
00000390: 7d05 74bc 3db3 2d3e fa94 803e 11b1 4b3e
000003a0: 8627 043d 2ca4 963e e177 873d ef87 233d
000003b0: 2463 853d 0f70 213e be44 c73d 4c6c 86bd
000003c0: 13c9 723e 9b5a 283e 6ad3 113d 5e89 a53d
000003d0: ae0f 703e abe6 333e 9ea9 e7bd d5ba 83bd
000003e0: de61 683e 2417 eabd 512a a33e 3e8d 1a3e
000003f0: 00e6 2d3e ab9e 63be 588c dabd 8172 7fbd

NAM_features.feature_nns.1.feature_nns.hidden_layers.2.bias f4 [64]
-0.28349164 0.13413328 -0.48667145 0.47228113 0.38734582 -0.45186892 0.71301407 0.2052442
0.82153 -0.30763862 0.1380634 0.040019307 0.6126166 0.7032119 -0.012690808 -0.2694585
0.20020606 -0.24316296 0.35791358 0.30195564 -0.5593569 -0.33714104 0.64146054 0.23076573
-0.26550996 0.16404146 0.7130843 -0.03350489 -0.44790298 -0.53757066 0.9608306 0.73695433
-0.78033566 -0.23351003 0.18915714 0.0024954742 0.06463261 0.2136805 0.12761466 0.45677972
0.25346026 0.032651458 0.207375 -0.11533388 -0.16070664 -0.20771371 0.57505685 -0.2825352
-0.62868565 -0.5468117 -0.18568395 -0.042135224 0.2647612 -0.18838699 -0.014558911 -0.1626475
0.47591612 -0.2724907 0.106382355 -0.31682518 0.24851388 0.7339113 -0.089026526 -0.36446604
00000000: d125 91be 3c5a 093e 002d f9be d5ce f13e
00000010: 3152 c63e 5d5b e7be 1788 363f 892b 523e
00000020: ca4f 523f cf82 9dbe 7e60 0d3e 49eb 233d
00000030: 71d4 1c3f b205 343f 1bed 4fbc 77f6 89be
00000040: d102 4d3e b6ff 78be 7340 b73e ee99 9a3e
00000050: 0432 0fbf c09d acbe c236 243f da4d 6c3e
00000060: ecf0 87be 7cfa 273e b18c 363f 6c3c 09bd
00000070: 8a53 e5be 3b9e 09bf fff8 753f 0aa9 3c3f
00000080: 14c4 47bf 411d 6fbe 69b2 413e 1c8b 233b
00000090: 1a5e 843d 10cf 5a3e 6bad 023e 08df e93e
000000a0: 8bc5 813e 89bd 053d 1d5a 543e 2b34 ecbd
000000b0: 4890 24be e7b2 54be ed36 133f 74a8 90be
000000c0: 8bf1 20bf dafb 0bbf ef23 3ebe fc95 2cbd
000000d0: c88e 873e 85e8 40be 8088 6ebc 118d 26be
000000e0: 47ab f33e e783 8bbe fede d93d e936 a2be
000000f0: 6c7a 7e3e 9ce1 3b3f 8a53 b6bd 4b9b babe

NAM_features.feature_nns.1.feature_nns.output_layer.weight f4 [4, 32]
-0.46273965 -0.40962654 -0.060922213 -0.16224991 -0.5318762 0.1649358 0.036708046 -0.4094915
0.05172156 -0.46167567 0.13259992 -0.051899385 0.2264562 0.08657455 0.21436085 -0.46543765
0.43635237 -0.34040967 0.035503756 -0.25860795 -0.4601681 -0.25479957 -0.009580572 -0.39498347
-0.4391048 0.2201128 -0.24033612 -0.1160498 -0.005410355 0.08892067 0.1384561 0.12910561
-0.38003698 -0.32261252 -0.17167027 0.15836033 -0.44963798 -0.26238564 -0.36509702 0.0020774822
-0.4515464 -0.15977517 0.16284503 0.08145061 -0.19621001 -0.33628634 -0.2183261 -0.3530539
0.3599309 -0.3039736 -0.43093285 -0.28688323 -0.34167224 -0.45521173 0.2282154 -0.15203503
-0.20016558 0.110315636 -0.09255565 0.08424298 -0.16601306 -0.22171801 -0.26555333 -0.047792416
0.33652592 0.21475755 -0.20810843 -0.13141972 -0.10562272 -0.003920978 0.31049114 0.07057269
-0.31144848 0.24216287 0.18563241 -0.01233422 -0.22664227 -0.20738703 -0.2800544 0.40513158
0.3491163 0.22580872 0.26395324 0.14397962 0.23769759 0.12444537 0.3438929 0.29560876
-0.13001496 -0.20796953 0.32238492 0.30773073 -0.1001394 -0.19316867 0.09659555 -0.15225342
-0.09764661 -0.05122096 -0.3395016 -0.30280995 0.10983124 0.33709738 0.09344223 0.4808983
-0.29168275 -0.008218209 -0.3136831 -0.044012353 -0.042015348 0.08727147 0.19128317 -0.05075525
0.072865866 0.2672624 0.46533242 0.4555943 -0.0009273873 0.19817975 -0.32361737 0.3663648
0.49581635 0.019704774 0.12537797 0.4084199 0.25671992 -0.16409576 0.42456788 -0.20357476
00000000: 36ec ecbe 92ba d1be 9289 79bd d724 26be
00000010: 0a29 08bf eee4 283e 2d5b 163d dfa8 d1be
00000020: fdd9 533d c160 ecbe 46c8 073e 7394 54bd
00000030: 22e4 673e ff4d b13d 6981 5b3e d84d eebe
00000040: 9469 df3e 2d4a aebe 636c 113d 4368 84be
00000050: 279b ebbe 1775 82be d5f7 1cbc 463b cabe
00000060: 58d2 e0be 4065 613e ac1a 76be 84ab edbd
00000070: 5949 b1bb 0a1c b63d 70c7 0d3e 4334 043e
00000080: 3594 c2be 782d a5be 55ca 2fbe 3629 223e
00000090: f336 e6be 6957 86be ffed babe 5e26 083b
000000a0: 1731 e7be 1a9c 23be d9c0 263e 94cf a63d
000000b0: 47eb 48be b92d acbe e190 5fbe 7bc3 b4be
000000c0: dd48 b83e 6da2 9bbe 3ba3 dcbe 5ce2 92be
000000d0: aaef aebe 8311 e9be 4cb1 693e 12af 1bbe
000000e0: 35f8 4cbe 2aed e13d d18d bdbd 9587 ac3d
000000f0: 54ff 29be 0c0a 63be 9bf6 87be fbc1 43bd
00000100: 204d ac3e 67e9 5b3e 601a 55be e492 06be
00000110: ba50 d8bd 8c7b 80bb b2f8 9e3e 6a88 903d
00000120: 2d76 9fbe 8bf9 773e 6c16 3e3e 7815 4abc
00000130: e914 68be 445d 54be 4a63 8fbe 686d cf3e
00000140: 5fbf b23e 673a 673e e124 873e 656f 133e
00000150: ff66 733e 37dd fe3d bb12 b03e 085a 973e
00000160: a422 05be f7f5 54be a30f a53e e28e 9d3e
00000170: e315 cdbd 02ce 45be e3d3 c53d 52e8 1bbe
00000180: f2fa c7bd 12cd 51bd 27d3 adbe e809 9bbe
00000190: 33ef e03d 0798 ac3e a45e bf3d 4d38 f63e
000001a0: 7157 95be aba5 06bc 129b a0be 4c46 34bd
000001b0: 4918 2cbd 62bb b23d bcdf 433e bde4 4fbd
000001c0: b33a 953d 9ed6 883e 0d40 ee3e a843 e93e
000001d0: e81b 73ba a2ef 4a3e 2db1 a5be 2b94 bb3e
000001e0: a4db fd3e e86b a13c 1563 003e 6a1c d13e
000001f0: cb70 833e b808 28be f660 d93e e775 50be

NAM_features.feature_nns.2.feature_nns.hidden_layers.0.weight f4 [1, 64]
0.29211348 0.11131762 0.22760476 0.11991787 0.31635958 0.20832524 -0.19547242 0.38051125
-0.29224083 0.14116973 -0.055691864 0.22793274 -0.14690365 0.1347342 0.15400961 0.4505923
0.2671589 -0.01507169 -0.018297574 0.12061212 0.3590211 -0.17827442 -0.33128992 0.24322492
-0.034429636 -0.018544327 0.4015772 0.40519777 0.12311258 -0.020184977 0.3471632 -0.20953417
0.39077565 -0.14611499 -0.1421008 0.30725673 0.23067455 0.2661541 -0.21607417 0.28236964
0.42510292 -0.11274267 0.44159827 -0.43004093 -0.019051043 -0.062321953 0.40120298 0.25398692
-0.13229391 0.1576357 -0.2307593 -0.12031717 0.37154895 -0.021909254 -0.07300305 0.2850108
-0.037956547 -0.043794286 0.2679819 -0.029784754 0.3766432 -0.338178 -0.06719226 0.28282467
00000000: e68f 953e 7efa e33d 3911 693e 8097 f53d
00000010: e2f9 a13e 3653 553e ec29 48be 5fd2 c23e
00000020: 97a0 95be cc8e 103e 271d 64bd 3367 693e
00000030: e96d 16be c3f7 093e b2b4 1d3e 09b4 e63e
00000040: 0dc9 883e 40ef 76bc cbe4 95bc 7d03 f73d
00000050: 9dd1 b73e 928d 36be d59e a9be f40f 793e
00000060: 1706 0dbd 46ea 97bc 879b cd3e 1576 cf3e
00000070: 7322 fc3d f75a a5bc 60bf b13e 2090 56be
00000080: bf13 c83e 2b9f 15be df82 11be c150 9d3e
00000090: f335 6c3e 5a45 883e 8c42 5dbe c192 903e
000000a0: 17a7 d93e a1e5 e6bd 2b19 e23e 532e dcbe
000000b0: ef10 9cbc 4e45 7fbd 7a6a cd3e 930a 823e
000000c0: 0e78 07be 416b 213e 2a4c 6cbe d968 f6bd
000000d0: aa3b be3e 097b b3bc a082 95bd f0ec 913e
000000e0: 5378 1bbd a361 33bd ec34 893e 28ff f3bc
000000f0: 61d7 c03e ab25 adbe 189c 89bd 65ce 903e

NAM_features.feature_nns.2.feature_nns.hidden_layers.1.weight f4 [64, 64]
-0.10081734 -0.016040463 -0.08317028 0.0019189068 -0.08630887 0.11859572 0.26357388 -0.038166713
0.22594301 0.1985819 0.16307572 0.27336198 0.07954255 -0.026414322 0.14307341 0.16190328
-0.12893695 -0.0308805 -0.03762647 0.18072861 -0.09627403 -0.23796882 -0.24711068 -0.012600326
-0.1992778 -0.21810794 0.075550884 -0.13363238 0.070350766 -0.034809474 0.1662394 0.20452456
0.17506386 -0.104400896 -0.07796386 0.18940257 0.028423643 -0.0071707303 -0.029670473 0.15679674
-0.14509572 0.20792548 0.12993076 0.06760791 -0.18016213 0.16725636 0.055085264 0.25941005
-0.1444938 0.053783637 0.18085063 -0.037711103 0.024233367 -0.1341603 -0.21373773 -0.02960392
-0.03568046 0.13267834 0.14422938 0.062123243 0.09913168 0.22075614 -0.0560384 0.042946592
-0.08095583 0.05993568 0.076960824 -0.11970824 -0.11039714 -0.008146466 0.21902461 -0.02615571
0.233869 0.15710169 0.03799251 0.08069938 -0.046864204 0.025621217 0.19965908 -0.1625716
-0.05387331 -0.12241195 -0.006115039 -0.15317342 0.056884184 -0.20705608 -0.0955898 -0.0146700945
0.006755348 0.08718008 0.060409516 0.16043043 0.089577325 0.023800878 0.1791626 0.08734079
-0.042300686 0.18887725 -0.09616297 -0.045600437 -0.28644842 0.015064999 -0.024766555 -0.21687914
-0.19030622 -0.072150186 0.0243207 0.05579836 -0.14509076 0.090493485 0.04290583 -0.035868783
-0.11336344 -0.13505393 0.10173872 -0.03826023 -0.18018292 -0.16411678 -0.14326742 0.0711278
-0.035009377 0.036072142 0.108417265 9.620644e-05 -0.08690747 -0.15340976 -0.01698154 -0.06961113
0.18394889 0.036318377 -0.18513471 0.14823589 0.11910605 0.053564522 -0.030600235 0.2168984
0.063046396 -0.014890279 -0.0050953375 0.06606508 0.20594773 -0.030043382 -0.043370888 0.028456157
-0.071140945 -0.16154209 -0.017790029 0.20772865 -0.06995626 -0.002191394 -0.16158172 -0.01792237
-0.10828599 -0.21676627 0.13703646 0.1903792 0.07398501 0.02972495 0.27648774 0.090193436
0.021075929 0.22098747 -0.15632243 0.28229856 0.00015588081 -0.017068602 -0.041637655 0.09228769
-0.23049687 -0.02840521 0.16659842 -0.016908119 0.108449936 0.3012311 0.16296959 0.0074496907
0.17200655 -0.059323274 0.047097404 0.17737028 -0.05178834 0.1442062 0.100859694 0.07898788
-0.030928155 -0.0030261267 -0.19645637 0.0019765717 0.031872783 0.35767478 -0.03018703 0.288181
0.11002183 -0.050986882 -0.025575804 -0.036339447 -0.050064053 0.039425105 -0.10164418 -0.046826586
0.016943503 0.020110384 0.30363494 0.22930636 0.096511 0.023662796 0.24428847 0.28267822
-4.754926e-05 -0.026704988 -0.049414337 -0.07527609 0.05606352 0.054019403 0.17054275 -0.0035748153
-0.049281124 -0.18573084 0.09495306 -0.0021055797 0.10339937 -0.1547016 0.2738698 0.12228956
-0.214591 0.07836204 0.013829163 0.20985396 -0.08250662 2.388178e-05 -0.02598051 -0.21371911
-0.17464636 0.06338454 -0.04004492 -0.018716866 0.035221055 -0.05684438 0.071293764 0.22000171
0.11263731 0.106638536 0.0049859914 -0.038306788 0.1733705 -0.02086095 0.014352384 0.18537213
-0.033613566 0.0029473337 -0.09982564 0.00040698 -0.0063194972 0.24082729 -0.022778235 -0.02657753
00000000: 5279 cebd 4a67 83bc 2e55 aabd d483 fb3a
00000010: b4c2 b0bd 50e2 f23d 28f3 863e b354 1cbd
00000020: 9b5d 673e 0e59 4b3e 52fd 263e 1af6 8b3e
00000030: 34e7 a23d d962 d8bc d681 123e f9c9 253e
00000040: 0c08 04be 1af9 fcbc 371e 1abd ec10 393e
00000050: 522b c5bd 19ae 73be 950a 7dbe 9971 4ebc
00000060: 7b0f 4cbe b057 5fbe 6cba 9a3d edd6 08be
00000070: 1014 903d 6194 0ebd a93a 2a3e e36e 513e
00000080: f143 333e 23d0 d5bd 84ab 9fbd bff2 413e
00000090: b3d8 e83c 72f8 eabb 7e0f f3bc 538f 203e
000000a0: f993 14be 6bea 543e 920c 053e 0476 8a3d
000000b0: 6c7c 38be 4045 2b3e 16a1 613d 65d1 843e
000000c0: 2ff6 13be 3b4c 5c3d e830 393e f576 1abd
000000d0: 0e85 c63c 5161 09be 10de 5abe ec83 f2bc
000000e0: ad25 12bd d5dc 073e deb0 133e f174 7e3d
000000f0: 8d05 cb3d e60d 623e 8588 65bd c4e8 2f3d
00000100: 2ccc a5bd 1e7f 753d a39d 9d3d 9829 f5bd
00000110: e517 e2bd c178 05bc fd47 603e 8044 d6bc
00000120: 5b7b 6f3e 44df 203e 099e 1b3d b745 a53d
00000130: aef4 3fbd 96e3 d13c 6e73 4c3e 2b79 26be
00000140: 43aa 5cbd 1eb3 fabd aa60 c8bb 7ed9 1cbe
00000150: 64ff 683d 8206 54be 96c4 c3bd d65a 70bc
00000160: f75b dd3b 788b b23d f86f 773d e047 243e
00000170: 5174 b73d 0ffa c23c 6776 373e badf b23d
00000180: 7c43 2dbd 0a69 413e 17f1 c4bd 86c7 3abd
00000190: 5ea9 92be 30d3 763c 3be3 cabc 9115 5ebe
000001a0: a2df 42be 7ac3 93bd 343c c73c d28c 643d
000001b0: ac92 14be a654 b93d 06be 2f3d 25eb 12bd
000001c0: 172b e8bd 944b 0abe 645c d03d c2b6 1cbd
000001d0: df81 38be 3b0e 28be b2b4 12be 74ab 913d
000001e0: fe65 0fbd 62c0 133d df09 de3d 70c2 c938
000001f0: 8bfc b1bd 7317 1dbe df1c 8bbc 4890 8ebd
00000200: 195d 3c3e 94c2 143d f493 3dbe 26cb 173e
00000210: dfed f33d 7966 5b3d 58ad fabc 9d1a 5e3e
00000220: 781e 813d 5bf6 73bc caf6 a6bb 214d 873d
00000230: f6e3 523e 8a1d f6bc aca5 31bd e31c e93c
00000240: 58b2 91bd 4a6b 25be 65bc 91bc d2b6 543e
00000250: 3a45 8fbd 7e9d 0fbb ae75 25be efd1 92bc
00000260: 0cc5 ddbd faf7 5dbe 4953 0c3e c4f2 423e
00000270: 7485 973d bd81 f33c cd8f 8d3e 56b7 b83d
00000280: 6da7 ac3c 8a4a 623e fd12 20be 7089 903e
00000290: f073 2339 74d3 8bbc 3f8c 2abd 5401 bd3d
000002a0: 5f07 6cbe 0bb2 e8bc c798 2a3e e582 8abc
000002b0: 001b de3d f63a 9a3e 80e1 263e 891c f43b
000002c0: 7c22 303e f6fc 72bd 35e9 403d 8ea0 353e
000002d0: 0320 54bd caaa 133e 878f ce3d 66c4 a13d
000002e0: 0b5d fdbc fb51 46bb dc2b 49be 5f89 013b
000002f0: 098d 023d 2621 b73e ca4a f7bc 768c 933e
00000300: 2053 e13d 9fd7 50bd 5984 d1bc acd8 14bd
00000310: f70f 4dbd 387c 213d d32a d0bd 3ccd 3fbd
00000320: 1acd 8a3c 88be a43c 0a76 9b3e 49cf 6a3e
00000330: 8fa7 c53d 7bd8 c13c c226 7a3e 33bb 903e
00000340: a16f 47b8 6bc4 dabc b066 4abd 5a2a 9abd
00000350: dda2 653d 7343 5d3d c2a2 2e3e 7347 6abb
00000360: 01db 49bd 3a30 3ebe c076 c23d c4fd 09bb
00000370: 0dc3 d33d 196a 1ebe aa38 8c3e f372 fa3d
00000380: bebd 5bbe 477c a03d b793 623c f5e3 563e
00000390: 3bf9 a8bd bb55 c837 14d5 d4bc 2fd9 5abe
000003a0: 7fd6 32be c1cf 813d 2406 24bd 1d54 99bc
000003b0: f443 103d a7d5 68bd 7702 923d 2148 613e
000003c0: 64ae e63d 4e65 da3d 8761 a33b 94e7 1cbd
000003d0: 0988 313e 95e4 aabc 4326 6b3c 31d2 3d3e
000003e0: 61ae 09bd 0e28 413b 6371 ccbd ee5f d539
000003f0: c913 cfbb 6e9b 763e 6c99 babc 1fb9 d9bc

NAM_features.feature_nns.2.feature_nns.hidden_layers.1.bias f4 [64]
-0.3548458 -0.09337032 0.05729656 0.038200103 -0.020426735 -0.22545244 -0.69122195 -0.6388519
0.041764483 0.8311057 -0.12188965 0.74277663 0.22604255 0.0062003313 0.95625997 0.006622533
0.32640117 -0.3259296 0.91255635 -0.47158238 -0.0775597 0.62488836 0.20642081 0.14332227
0.15689811 -0.49560416 0.28559873 -0.49682128 0.04155456 -0.31016755 -0.5461449 0.62012285
0.1368138 0.019892445 0.5898395 0.8498711 0.88476914 0.07227626 0.3963085 0.13246416
-0.14517091 -0.64902556 -0.39889348 -0.14110096 -0.08376676 -0.4675428 0.105327934 0.23174043
-0.4060558 0.49632853 0.07426738 -0.0048245476 0.4901746 0.27405313 -0.035950907 0.08027723
-0.52081394 0.12607817 0.08747024 0.2691967 -0.10101775 0.07136127 0.0023740751 0.36592424
00000000: 59ae b5be f038 bfbd ccaf 6a3d b677 1c3d
00000010: f855 a7bc 01dd 66be ecf3 30bf cc8b 23bf
00000020: 3c11 2b3d 58c3 543f 48a1 f9bd 9c26 3e3f
00000030: b377 673e 262c cb3b 74cd 743f d501 d93b
00000040: 0e1e a73e 3fe0 a6be 4b9d 693f 3f73 f1be
00000050: 9fd7 9ebd aff8 1f3f fa5f 533e 13c3 123e
00000060: e6a9 203e d4bf fdbe ff39 923e 5c5f febe
00000070: 1d35 2a3d 48ce 9ebe 27d0 0bbf 5fc0 1e3f
00000080: eb18 0c3e 7bf5 a23c b9ff 163f 2791 593f
00000090: 3b80 623f 9305 943d f3e8 ca3e afa4 073e
000000a0: afa7 14be 8a26 26bf c43b ccbe c57c 10be
000000b0: e88d abbd c561 efbe 2cb6 d73d 5d4d 6d3e
000000c0: 8ce6 cfbe c61e fe3e 7f19 983d 3d17 9ebb
000000d0: 2af8 fa3e b150 8c3e 4241 13bd 6368 a43d
000000e0: 1054 05bf a31a 013e 9923 b33d 26d4 893e
000000f0: 65e2 cebd dc25 923d 5f96 1b3b 6c5a bb3e
